saved_model_schema_version: 1
meta_graphs {
  meta_info_def {
    stripped_op_list {
      op {
        name: "Add"
        input_arg {
          name: "x"
          type_attr: "T"
        }
        input_arg {
          name: "y"
          type_attr: "T"
        }
        output_arg {
          name: "z"
          type_attr: "T"
        }
        attr {
          name: "T"
          type: "type"
          allowed_values {
            list {
              type: DT_BFLOAT16
              type: DT_HALF
              type: DT_FLOAT
              type: DT_DOUBLE
              type: DT_UINT8
              type: DT_INT8
              type: DT_INT16
              type: DT_INT32
              type: DT_INT64
              type: DT_COMPLEX64
              type: DT_COMPLEX128
              type: DT_STRING
            }
          }
        }
      }
      op {
        name: "All"
        input_arg {
          name: "input"
          type: DT_BOOL
        }
        input_arg {
          name: "reduction_indices"
          type_attr: "Tidx"
        }
        output_arg {
          name: "output"
          type: DT_BOOL
        }
        attr {
          name: "keep_dims"
          type: "bool"
          default_value {
            b: false
          }
        }
        attr {
          name: "Tidx"
          type: "type"
          default_value {
            type: DT_INT32
          }
          allowed_values {
            list {
              type: DT_INT32
              type: DT_INT64
            }
          }
        }
      }
      op {
        name: "ArgMax"
        input_arg {
          name: "input"
          type_attr: "T"
        }
        input_arg {
          name: "dimension"
          type_attr: "Tidx"
        }
        output_arg {
          name: "output"
          type_attr: "output_type"
        }
        attr {
          name: "T"
          type: "type"
          allowed_values {
            list {
              type: DT_FLOAT
              type: DT_DOUBLE
              type: DT_INT32
              type: DT_UINT8
              type: DT_INT16
              type: DT_INT8
              type: DT_COMPLEX64
              type: DT_INT64
              type: DT_QINT8
              type: DT_QUINT8
              type: DT_QINT32
              type: DT_BFLOAT16
              type: DT_UINT16
              type: DT_COMPLEX128
              type: DT_HALF
              type: DT_UINT32
              type: DT_UINT64
            }
          }
        }
        attr {
          name: "Tidx"
          type: "type"
          default_value {
            type: DT_INT32
          }
          allowed_values {
            list {
              type: DT_INT32
              type: DT_INT64
            }
          }
        }
        attr {
          name: "output_type"
          type: "type"
          default_value {
            type: DT_INT64
          }
          allowed_values {
            list {
              type: DT_INT32
              type: DT_INT64
            }
          }
        }
      }
      op {
        name: "Assert"
        input_arg {
          name: "condition"
          type: DT_BOOL
        }
        input_arg {
          name: "data"
          type_list_attr: "T"
        }
        attr {
          name: "T"
          type: "list(type)"
          has_minimum: true
          minimum: 1
        }
        attr {
          name: "summarize"
          type: "int"
          default_value {
            i: 3
          }
        }
        is_stateful: true
      }
      op {
        name: "Assign"
        input_arg {
          name: "ref"
          type_attr: "T"
          is_ref: true
        }
        input_arg {
          name: "value"
          type_attr: "T"
        }
        output_arg {
          name: "output_ref"
          type_attr: "T"
          is_ref: true
        }
        attr {
          name: "T"
          type: "type"
        }
        attr {
          name: "validate_shape"
          type: "bool"
          default_value {
            b: true
          }
        }
        attr {
          name: "use_locking"
          type: "bool"
          default_value {
            b: true
          }
        }
        allows_uninitialized_input: true
      }
      op {
        name: "BatchMatMul"
        input_arg {
          name: "x"
          type_attr: "T"
        }
        input_arg {
          name: "y"
          type_attr: "T"
        }
        output_arg {
          name: "output"
          type_attr: "T"
        }
        attr {
          name: "T"
          type: "type"
          allowed_values {
            list {
              type: DT_BFLOAT16
              type: DT_HALF
              type: DT_FLOAT
              type: DT_DOUBLE
              type: DT_INT32
              type: DT_COMPLEX64
              type: DT_COMPLEX128
            }
          }
        }
        attr {
          name: "adj_x"
          type: "bool"
          default_value {
            b: false
          }
        }
        attr {
          name: "adj_y"
          type: "bool"
          default_value {
            b: false
          }
        }
      }
      op {
        name: "BiasAdd"
        input_arg {
          name: "value"
          type_attr: "T"
        }
        input_arg {
          name: "bias"
          type_attr: "T"
        }
        output_arg {
          name: "output"
          type_attr: "T"
        }
        attr {
          name: "T"
          type: "type"
          allowed_values {
            list {
              type: DT_FLOAT
              type: DT_DOUBLE
              type: DT_INT32
              type: DT_UINT8
              type: DT_INT16
              type: DT_INT8
              type: DT_COMPLEX64
              type: DT_INT64
              type: DT_QINT8
              type: DT_QUINT8
              type: DT_QINT32
              type: DT_BFLOAT16
              type: DT_UINT16
              type: DT_COMPLEX128
              type: DT_HALF
              type: DT_UINT32
              type: DT_UINT64
            }
          }
        }
        attr {
          name: "data_format"
          type: "string"
          default_value {
            s: "NHWC"
          }
          allowed_values {
            list {
              s: "NHWC"
              s: "NCHW"
            }
          }
        }
      }
      op {
        name: "Cast"
        input_arg {
          name: "x"
          type_attr: "SrcT"
        }
        output_arg {
          name: "y"
          type_attr: "DstT"
        }
        attr {
          name: "SrcT"
          type: "type"
        }
        attr {
          name: "DstT"
          type: "type"
        }
      }
      op {
        name: "ConcatV2"
        input_arg {
          name: "values"
          type_attr: "T"
          number_attr: "N"
        }
        input_arg {
          name: "axis"
          type_attr: "Tidx"
        }
        output_arg {
          name: "output"
          type_attr: "T"
        }
        attr {
          name: "N"
          type: "int"
          has_minimum: true
          minimum: 2
        }
        attr {
          name: "T"
          type: "type"
        }
        attr {
          name: "Tidx"
          type: "type"
          default_value {
            type: DT_INT32
          }
          allowed_values {
            list {
              type: DT_INT32
              type: DT_INT64
            }
          }
        }
      }
      op {
        name: "Const"
        output_arg {
          name: "output"
          type_attr: "dtype"
        }
        attr {
          name: "value"
          type: "tensor"
        }
        attr {
          name: "dtype"
          type: "type"
        }
      }
      op {
        name: "Enter"
        input_arg {
          name: "data"
          type_attr: "T"
        }
        output_arg {
          name: "output"
          type_attr: "T"
        }
        attr {
          name: "T"
          type: "type"
        }
        attr {
          name: "frame_name"
          type: "string"
        }
        attr {
          name: "is_constant"
          type: "bool"
          default_value {
            b: false
          }
        }
        attr {
          name: "parallel_iterations"
          type: "int"
          default_value {
            i: 10
          }
        }
      }
      op {
        name: "Equal"
        input_arg {
          name: "x"
          type_attr: "T"
        }
        input_arg {
          name: "y"
          type_attr: "T"
        }
        output_arg {
          name: "z"
          type: DT_BOOL
        }
        attr {
          name: "T"
          type: "type"
          allowed_values {
            list {
              type: DT_BFLOAT16
              type: DT_HALF
              type: DT_FLOAT
              type: DT_DOUBLE
              type: DT_UINT8
              type: DT_INT8
              type: DT_INT16
              type: DT_INT32
              type: DT_INT64
              type: DT_COMPLEX64
              type: DT_QUINT8
              type: DT_QINT8
              type: DT_QINT32
              type: DT_STRING
              type: DT_BOOL
              type: DT_COMPLEX128
            }
          }
        }
        is_commutative: true
      }
      op {
        name: "Exit"
        input_arg {
          name: "data"
          type_attr: "T"
        }
        output_arg {
          name: "output"
          type_attr: "T"
        }
        attr {
          name: "T"
          type: "type"
        }
      }
      op {
        name: "ExpandDims"
        input_arg {
          name: "input"
          type_attr: "T"
        }
        input_arg {
          name: "dim"
          type_attr: "Tdim"
        }
        output_arg {
          name: "output"
          type_attr: "T"
        }
        attr {
          name: "T"
          type: "type"
        }
        attr {
          name: "Tdim"
          type: "type"
          default_value {
            type: DT_INT32
          }
          allowed_values {
            list {
              type: DT_INT32
              type: DT_INT64
            }
          }
        }
      }
      op {
        name: "Fill"
        input_arg {
          name: "dims"
          type_attr: "index_type"
        }
        input_arg {
          name: "value"
          type_attr: "T"
        }
        output_arg {
          name: "output"
          type_attr: "T"
        }
        attr {
          name: "T"
          type: "type"
        }
        attr {
          name: "index_type"
          type: "type"
          default_value {
            type: DT_INT32
          }
          allowed_values {
            list {
              type: DT_INT32
              type: DT_INT64
            }
          }
        }
      }
      op {
        name: "GatherV2"
        input_arg {
          name: "params"
          type_attr: "Tparams"
        }
        input_arg {
          name: "indices"
          type_attr: "Tindices"
        }
        input_arg {
          name: "axis"
          type_attr: "Taxis"
        }
        output_arg {
          name: "output"
          type_attr: "Tparams"
        }
        attr {
          name: "Tparams"
          type: "type"
        }
        attr {
          name: "Tindices"
          type: "type"
          allowed_values {
            list {
              type: DT_INT32
              type: DT_INT64
            }
          }
        }
        attr {
          name: "Taxis"
          type: "type"
          allowed_values {
            list {
              type: DT_INT32
              type: DT_INT64
            }
          }
        }
      }
      op {
        name: "GreaterEqual"
        input_arg {
          name: "x"
          type_attr: "T"
        }
        input_arg {
          name: "y"
          type_attr: "T"
        }
        output_arg {
          name: "z"
          type: DT_BOOL
        }
        attr {
          name: "T"
          type: "type"
          allowed_values {
            list {
              type: DT_FLOAT
              type: DT_DOUBLE
              type: DT_INT32
              type: DT_UINT8
              type: DT_INT16
              type: DT_INT8
              type: DT_INT64
              type: DT_BFLOAT16
              type: DT_UINT16
              type: DT_HALF
              type: DT_UINT32
              type: DT_UINT64
            }
          }
        }
      }
      op {
        name: "HashTableV2"
        output_arg {
          name: "table_handle"
          type: DT_RESOURCE
        }
        attr {
          name: "container"
          type: "string"
          default_value {
            s: ""
          }
        }
        attr {
          name: "shared_name"
          type: "string"
          default_value {
            s: ""
          }
        }
        attr {
          name: "use_node_name_sharing"
          type: "bool"
          default_value {
            b: false
          }
        }
        attr {
          name: "key_dtype"
          type: "type"
        }
        attr {
          name: "value_dtype"
          type: "type"
        }
        is_stateful: true
      }
      op {
        name: "Identity"
        input_arg {
          name: "input"
          type_attr: "T"
        }
        output_arg {
          name: "output"
          type_attr: "T"
        }
        attr {
          name: "T"
          type: "type"
        }
      }
      op {
        name: "ImageSummary"
        input_arg {
          name: "tag"
          type: DT_STRING
        }
        input_arg {
          name: "tensor"
          type_attr: "T"
        }
        output_arg {
          name: "summary"
          type: DT_STRING
        }
        attr {
          name: "max_images"
          type: "int"
          default_value {
            i: 3
          }
          has_minimum: true
          minimum: 1
        }
        attr {
          name: "T"
          type: "type"
          default_value {
            type: DT_FLOAT
          }
          allowed_values {
            list {
              type: DT_UINT8
              type: DT_FLOAT
              type: DT_HALF
              type: DT_DOUBLE
            }
          }
        }
        attr {
          name: "bad_color"
          type: "tensor"
          default_value {
            tensor {
              dtype: DT_UINT8
              tensor_shape {
                dim {
                  size: 4
                }
              }
              int_val: 255
              int_val: 0
              int_val: 0
              int_val: 255
            }
          }
        }
      }
      op {
        name: "InitializeTableFromTextFileV2"
        input_arg {
          name: "table_handle"
          type: DT_RESOURCE
        }
        input_arg {
          name: "filename"
          type: DT_STRING
        }
        attr {
          name: "key_index"
          type: "int"
          has_minimum: true
          minimum: -2
        }
        attr {
          name: "value_index"
          type: "int"
          has_minimum: true
          minimum: -2
        }
        attr {
          name: "vocab_size"
          type: "int"
          default_value {
            i: -1
          }
          has_minimum: true
          minimum: -1
        }
        attr {
          name: "delimiter"
          type: "string"
          default_value {
            s: "\t"
          }
        }
        is_stateful: true
      }
      op {
        name: "Less"
        input_arg {
          name: "x"
          type_attr: "T"
        }
        input_arg {
          name: "y"
          type_attr: "T"
        }
        output_arg {
          name: "z"
          type: DT_BOOL
        }
        attr {
          name: "T"
          type: "type"
          allowed_values {
            list {
              type: DT_FLOAT
              type: DT_DOUBLE
              type: DT_INT32
              type: DT_UINT8
              type: DT_INT16
              type: DT_INT8
              type: DT_INT64
              type: DT_BFLOAT16
              type: DT_UINT16
              type: DT_HALF
              type: DT_UINT32
              type: DT_UINT64
            }
          }
        }
      }
      op {
        name: "LessEqual"
        input_arg {
          name: "x"
          type_attr: "T"
        }
        input_arg {
          name: "y"
          type_attr: "T"
        }
        output_arg {
          name: "z"
          type: DT_BOOL
        }
        attr {
          name: "T"
          type: "type"
          allowed_values {
            list {
              type: DT_FLOAT
              type: DT_DOUBLE
              type: DT_INT32
              type: DT_UINT8
              type: DT_INT16
              type: DT_INT8
              type: DT_INT64
              type: DT_BFLOAT16
              type: DT_UINT16
              type: DT_HALF
              type: DT_UINT32
              type: DT_UINT64
            }
          }
        }
      }
      op {
        name: "ListDiff"
        input_arg {
          name: "x"
          type_attr: "T"
        }
        input_arg {
          name: "y"
          type_attr: "T"
        }
        output_arg {
          name: "out"
          type_attr: "T"
        }
        output_arg {
          name: "idx"
          type_attr: "out_idx"
        }
        attr {
          name: "T"
          type: "type"
        }
        attr {
          name: "out_idx"
          type: "type"
          default_value {
            type: DT_INT32
          }
          allowed_values {
            list {
              type: DT_INT32
              type: DT_INT64
            }
          }
        }
      }
      op {
        name: "LogicalAnd"
        input_arg {
          name: "x"
          type: DT_BOOL
        }
        input_arg {
          name: "y"
          type: DT_BOOL
        }
        output_arg {
          name: "z"
          type: DT_BOOL
        }
        is_commutative: true
      }
      op {
        name: "LogicalNot"
        input_arg {
          name: "x"
          type: DT_BOOL
        }
        output_arg {
          name: "y"
          type: DT_BOOL
        }
      }
      op {
        name: "LogicalOr"
        input_arg {
          name: "x"
          type: DT_BOOL
        }
        input_arg {
          name: "y"
          type: DT_BOOL
        }
        output_arg {
          name: "z"
          type: DT_BOOL
        }
        is_commutative: true
      }
      op {
        name: "LookupTableFindV2"
        input_arg {
          name: "table_handle"
          type: DT_RESOURCE
        }
        input_arg {
          name: "keys"
          type_attr: "Tin"
        }
        input_arg {
          name: "default_value"
          type_attr: "Tout"
        }
        output_arg {
          name: "values"
          type_attr: "Tout"
        }
        attr {
          name: "Tin"
          type: "type"
        }
        attr {
          name: "Tout"
          type: "type"
        }
        is_stateful: true
      }
      op {
        name: "LoopCond"
        input_arg {
          name: "input"
          type: DT_BOOL
        }
        output_arg {
          name: "output"
          type: DT_BOOL
        }
      }
      op {
        name: "MatMul"
        input_arg {
          name: "a"
          type_attr: "T"
        }
        input_arg {
          name: "b"
          type_attr: "T"
        }
        output_arg {
          name: "product"
          type_attr: "T"
        }
        attr {
          name: "transpose_a"
          type: "bool"
          default_value {
            b: false
          }
        }
        attr {
          name: "transpose_b"
          type: "bool"
          default_value {
            b: false
          }
        }
        attr {
          name: "T"
          type: "type"
          allowed_values {
            list {
              type: DT_BFLOAT16
              type: DT_HALF
              type: DT_FLOAT
              type: DT_DOUBLE
              type: DT_INT32
              type: DT_COMPLEX64
              type: DT_COMPLEX128
            }
          }
        }
      }
      op {
        name: "Max"
        input_arg {
          name: "input"
          type_attr: "T"
        }
        input_arg {
          name: "reduction_indices"
          type_attr: "Tidx"
        }
        output_arg {
          name: "output"
          type_attr: "T"
        }
        attr {
          name: "keep_dims"
          type: "bool"
          default_value {
            b: false
          }
        }
        attr {
          name: "T"
          type: "type"
          allowed_values {
            list {
              type: DT_FLOAT
              type: DT_DOUBLE
              type: DT_INT32
              type: DT_UINT8
              type: DT_INT16
              type: DT_INT8
              type: DT_COMPLEX64
              type: DT_INT64
              type: DT_QINT8
              type: DT_QUINT8
              type: DT_QINT32
              type: DT_BFLOAT16
              type: DT_UINT16
              type: DT_COMPLEX128
              type: DT_HALF
              type: DT_UINT32
              type: DT_UINT64
            }
          }
        }
        attr {
          name: "Tidx"
          type: "type"
          default_value {
            type: DT_INT32
          }
          allowed_values {
            list {
              type: DT_INT32
              type: DT_INT64
            }
          }
        }
      }
      op {
        name: "Maximum"
        input_arg {
          name: "x"
          type_attr: "T"
        }
        input_arg {
          name: "y"
          type_attr: "T"
        }
        output_arg {
          name: "z"
          type_attr: "T"
        }
        attr {
          name: "T"
          type: "type"
          allowed_values {
            list {
              type: DT_BFLOAT16
              type: DT_HALF
              type: DT_FLOAT
              type: DT_DOUBLE
              type: DT_INT32
              type: DT_INT64
            }
          }
        }
        is_commutative: true
      }
      op {
        name: "Merge"
        input_arg {
          name: "inputs"
          type_attr: "T"
          number_attr: "N"
        }
        output_arg {
          name: "output"
          type_attr: "T"
        }
        output_arg {
          name: "value_index"
          type: DT_INT32
        }
        attr {
          name: "T"
          type: "type"
        }
        attr {
          name: "N"
          type: "int"
          has_minimum: true
          minimum: 1
        }
      }
      op {
        name: "MergeV2Checkpoints"
        input_arg {
          name: "checkpoint_prefixes"
          type: DT_STRING
        }
        input_arg {
          name: "destination_prefix"
          type: DT_STRING
        }
        attr {
          name: "delete_old_dirs"
          type: "bool"
          default_value {
            b: true
          }
        }
        is_stateful: true
      }
      op {
        name: "Min"
        input_arg {
          name: "input"
          type_attr: "T"
        }
        input_arg {
          name: "reduction_indices"
          type_attr: "Tidx"
        }
        output_arg {
          name: "output"
          type_attr: "T"
        }
        attr {
          name: "keep_dims"
          type: "bool"
          default_value {
            b: false
          }
        }
        attr {
          name: "T"
          type: "type"
          allowed_values {
            list {
              type: DT_FLOAT
              type: DT_DOUBLE
              type: DT_INT32
              type: DT_UINT8
              type: DT_INT16
              type: DT_INT8
              type: DT_COMPLEX64
              type: DT_INT64
              type: DT_QINT8
              type: DT_QUINT8
              type: DT_QINT32
              type: DT_BFLOAT16
              type: DT_UINT16
              type: DT_COMPLEX128
              type: DT_HALF
              type: DT_UINT32
              type: DT_UINT64
            }
          }
        }
        attr {
          name: "Tidx"
          type: "type"
          default_value {
            type: DT_INT32
          }
          allowed_values {
            list {
              type: DT_INT32
              type: DT_INT64
            }
          }
        }
      }
      op {
        name: "Minimum"
        input_arg {
          name: "x"
          type_attr: "T"
        }
        input_arg {
          name: "y"
          type_attr: "T"
        }
        output_arg {
          name: "z"
          type_attr: "T"
        }
        attr {
          name: "T"
          type: "type"
          allowed_values {
            list {
              type: DT_BFLOAT16
              type: DT_HALF
              type: DT_FLOAT
              type: DT_DOUBLE
              type: DT_INT32
              type: DT_INT64
            }
          }
        }
        is_commutative: true
      }
      op {
        name: "Mul"
        input_arg {
          name: "x"
          type_attr: "T"
        }
        input_arg {
          name: "y"
          type_attr: "T"
        }
        output_arg {
          name: "z"
          type_attr: "T"
        }
        attr {
          name: "T"
          type: "type"
          allowed_values {
            list {
              type: DT_BFLOAT16
              type: DT_HALF
              type: DT_FLOAT
              type: DT_DOUBLE
              type: DT_UINT8
              type: DT_INT8
              type: DT_UINT16
              type: DT_INT16
              type: DT_INT32
              type: DT_INT64
              type: DT_COMPLEX64
              type: DT_COMPLEX128
            }
          }
        }
        is_commutative: true
      }
      op {
        name: "NextIteration"
        input_arg {
          name: "data"
          type_attr: "T"
        }
        output_arg {
          name: "output"
          type_attr: "T"
        }
        attr {
          name: "T"
          type: "type"
        }
      }
      op {
        name: "NoOp"
      }
      op {
        name: "Pack"
        input_arg {
          name: "values"
          type_attr: "T"
          number_attr: "N"
        }
        output_arg {
          name: "output"
          type_attr: "T"
        }
        attr {
          name: "N"
          type: "int"
          has_minimum: true
          minimum: 1
        }
        attr {
          name: "T"
          type: "type"
        }
        attr {
          name: "axis"
          type: "int"
          default_value {
            i: 0
          }
        }
      }
      op {
        name: "ParseExample"
        input_arg {
          name: "serialized"
          type: DT_STRING
        }
        input_arg {
          name: "names"
          type: DT_STRING
        }
        input_arg {
          name: "sparse_keys"
          type: DT_STRING
          number_attr: "Nsparse"
        }
        input_arg {
          name: "dense_keys"
          type: DT_STRING
          number_attr: "Ndense"
        }
        input_arg {
          name: "dense_defaults"
          type_list_attr: "Tdense"
        }
        output_arg {
          name: "sparse_indices"
          type: DT_INT64
          number_attr: "Nsparse"
        }
        output_arg {
          name: "sparse_values"
          type_list_attr: "sparse_types"
        }
        output_arg {
          name: "sparse_shapes"
          type: DT_INT64
          number_attr: "Nsparse"
        }
        output_arg {
          name: "dense_values"
          type_list_attr: "Tdense"
        }
        attr {
          name: "Nsparse"
          type: "int"
          has_minimum: true
        }
        attr {
          name: "Ndense"
          type: "int"
          has_minimum: true
        }
        attr {
          name: "sparse_types"
          type: "list(type)"
          has_minimum: true
          allowed_values {
            list {
              type: DT_FLOAT
              type: DT_INT64
              type: DT_STRING
            }
          }
        }
        attr {
          name: "Tdense"
          type: "list(type)"
          has_minimum: true
          allowed_values {
            list {
              type: DT_FLOAT
              type: DT_INT64
              type: DT_STRING
            }
          }
        }
        attr {
          name: "dense_shapes"
          type: "list(shape)"
          has_minimum: true
        }
      }
      op {
        name: "Placeholder"
        output_arg {
          name: "output"
          type_attr: "dtype"
        }
        attr {
          name: "dtype"
          type: "type"
        }
        attr {
          name: "shape"
          type: "shape"
          default_value {
            shape {
              unknown_rank: true
            }
          }
        }
      }
      op {
        name: "Prod"
        input_arg {
          name: "input"
          type_attr: "T"
        }
        input_arg {
          name: "reduction_indices"
          type_attr: "Tidx"
        }
        output_arg {
          name: "output"
          type_attr: "T"
        }
        attr {
          name: "keep_dims"
          type: "bool"
          default_value {
            b: false
          }
        }
        attr {
          name: "T"
          type: "type"
          allowed_values {
            list {
              type: DT_FLOAT
              type: DT_DOUBLE
              type: DT_INT32
              type: DT_UINT8
              type: DT_INT16
              type: DT_INT8
              type: DT_COMPLEX64
              type: DT_INT64
              type: DT_QINT8
              type: DT_QUINT8
              type: DT_QINT32
              type: DT_BFLOAT16
              type: DT_UINT16
              type: DT_COMPLEX128
              type: DT_HALF
              type: DT_UINT32
              type: DT_UINT64
            }
          }
        }
        attr {
          name: "Tidx"
          type: "type"
          default_value {
            type: DT_INT32
          }
          allowed_values {
            list {
              type: DT_INT32
              type: DT_INT64
            }
          }
        }
      }
      op {
        name: "RandomUniform"
        input_arg {
          name: "shape"
          type_attr: "T"
        }
        output_arg {
          name: "output"
          type_attr: "dtype"
        }
        attr {
          name: "seed"
          type: "int"
          default_value {
            i: 0
          }
        }
        attr {
          name: "seed2"
          type: "int"
          default_value {
            i: 0
          }
        }
        attr {
          name: "dtype"
          type: "type"
          allowed_values {
            list {
              type: DT_HALF
              type: DT_BFLOAT16
              type: DT_FLOAT
              type: DT_DOUBLE
            }
          }
        }
        attr {
          name: "T"
          type: "type"
          allowed_values {
            list {
              type: DT_INT32
              type: DT_INT64
            }
          }
        }
        is_stateful: true
      }
      op {
        name: "Range"
        input_arg {
          name: "start"
          type_attr: "Tidx"
        }
        input_arg {
          name: "limit"
          type_attr: "Tidx"
        }
        input_arg {
          name: "delta"
          type_attr: "Tidx"
        }
        output_arg {
          name: "output"
          type_attr: "Tidx"
        }
        attr {
          name: "Tidx"
          type: "type"
          default_value {
            type: DT_INT32
          }
          allowed_values {
            list {
              type: DT_BFLOAT16
              type: DT_FLOAT
              type: DT_DOUBLE
              type: DT_INT32
              type: DT_INT64
            }
          }
        }
      }
      op {
        name: "Rank"
        input_arg {
          name: "input"
          type_attr: "T"
        }
        output_arg {
          name: "output"
          type: DT_INT32
        }
        attr {
          name: "T"
          type: "type"
        }
      }
      op {
        name: "Reshape"
        input_arg {
          name: "tensor"
          type_attr: "T"
        }
        input_arg {
          name: "shape"
          type_attr: "Tshape"
        }
        output_arg {
          name: "output"
          type_attr: "T"
        }
        attr {
          name: "T"
          type: "type"
        }
        attr {
          name: "Tshape"
          type: "type"
          default_value {
            type: DT_INT32
          }
          allowed_values {
            list {
              type: DT_INT32
              type: DT_INT64
            }
          }
        }
      }
      op {
        name: "RestoreV2"
        input_arg {
          name: "prefix"
          type: DT_STRING
        }
        input_arg {
          name: "tensor_names"
          type: DT_STRING
        }
        input_arg {
          name: "shape_and_slices"
          type: DT_STRING
        }
        output_arg {
          name: "tensors"
          type_list_attr: "dtypes"
        }
        attr {
          name: "dtypes"
          type: "list(type)"
          has_minimum: true
          minimum: 1
        }
        is_stateful: true
      }
      op {
        name: "ReverseSequence"
        input_arg {
          name: "input"
          type_attr: "T"
        }
        input_arg {
          name: "seq_lengths"
          type_attr: "Tlen"
        }
        output_arg {
          name: "output"
          type_attr: "T"
        }
        attr {
          name: "seq_dim"
          type: "int"
        }
        attr {
          name: "batch_dim"
          type: "int"
          default_value {
            i: 0
          }
        }
        attr {
          name: "T"
          type: "type"
        }
        attr {
          name: "Tlen"
          type: "type"
          default_value {
            type: DT_INT64
          }
          allowed_values {
            list {
              type: DT_INT32
              type: DT_INT64
            }
          }
        }
      }
      op {
        name: "Round"
        input_arg {
          name: "x"
          type_attr: "T"
        }
        output_arg {
          name: "y"
          type_attr: "T"
        }
        attr {
          name: "T"
          type: "type"
          allowed_values {
            list {
              type: DT_BFLOAT16
              type: DT_HALF
              type: DT_FLOAT
              type: DT_DOUBLE
              type: DT_INT32
              type: DT_INT64
              type: DT_COMPLEX64
              type: DT_COMPLEX128
            }
          }
        }
      }
      op {
        name: "SaveV2"
        input_arg {
          name: "prefix"
          type: DT_STRING
        }
        input_arg {
          name: "tensor_names"
          type: DT_STRING
        }
        input_arg {
          name: "shape_and_slices"
          type: DT_STRING
        }
        input_arg {
          name: "tensors"
          type_list_attr: "dtypes"
        }
        attr {
          name: "dtypes"
          type: "list(type)"
          has_minimum: true
          minimum: 1
        }
        is_stateful: true
      }
      op {
        name: "Select"
        input_arg {
          name: "condition"
          type: DT_BOOL
        }
        input_arg {
          name: "t"
          type_attr: "T"
        }
        input_arg {
          name: "e"
          type_attr: "T"
        }
        output_arg {
          name: "output"
          type_attr: "T"
        }
        attr {
          name: "T"
          type: "type"
        }
      }
      op {
        name: "Shape"
        input_arg {
          name: "input"
          type_attr: "T"
        }
        output_arg {
          name: "output"
          type_attr: "out_type"
        }
        attr {
          name: "T"
          type: "type"
        }
        attr {
          name: "out_type"
          type: "type"
          default_value {
            type: DT_INT32
          }
          allowed_values {
            list {
              type: DT_INT32
              type: DT_INT64
            }
          }
        }
      }
      op {
        name: "ShardedFilename"
        input_arg {
          name: "basename"
          type: DT_STRING
        }
        input_arg {
          name: "shard"
          type: DT_INT32
        }
        input_arg {
          name: "num_shards"
          type: DT_INT32
        }
        output_arg {
          name: "filename"
          type: DT_STRING
        }
      }
      op {
        name: "Sigmoid"
        input_arg {
          name: "x"
          type_attr: "T"
        }
        output_arg {
          name: "y"
          type_attr: "T"
        }
        attr {
          name: "T"
          type: "type"
          allowed_values {
            list {
              type: DT_BFLOAT16
              type: DT_HALF
              type: DT_FLOAT
              type: DT_DOUBLE
              type: DT_COMPLEX64
              type: DT_COMPLEX128
            }
          }
        }
      }
      op {
        name: "Size"
        input_arg {
          name: "input"
          type_attr: "T"
        }
        output_arg {
          name: "output"
          type_attr: "out_type"
        }
        attr {
          name: "T"
          type: "type"
        }
        attr {
          name: "out_type"
          type: "type"
          default_value {
            type: DT_INT32
          }
          allowed_values {
            list {
              type: DT_INT32
              type: DT_INT64
            }
          }
        }
      }
      op {
        name: "Softmax"
        input_arg {
          name: "logits"
          type_attr: "T"
        }
        output_arg {
          name: "softmax"
          type_attr: "T"
        }
        attr {
          name: "T"
          type: "type"
          allowed_values {
            list {
              type: DT_HALF
              type: DT_BFLOAT16
              type: DT_FLOAT
              type: DT_DOUBLE
            }
          }
        }
      }
      op {
        name: "Split"
        input_arg {
          name: "split_dim"
          type: DT_INT32
        }
        input_arg {
          name: "value"
          type_attr: "T"
        }
        output_arg {
          name: "output"
          type_attr: "T"
          number_attr: "num_split"
        }
        attr {
          name: "num_split"
          type: "int"
          has_minimum: true
          minimum: 1
        }
        attr {
          name: "T"
          type: "type"
        }
      }
      op {
        name: "Squeeze"
        input_arg {
          name: "input"
          type_attr: "T"
        }
        output_arg {
          name: "output"
          type_attr: "T"
        }
        attr {
          name: "T"
          type: "type"
        }
        attr {
          name: "squeeze_dims"
          type: "list(int)"
          default_value {
            list {
            }
          }
          has_minimum: true
        }
      }
      op {
        name: "StridedSlice"
        input_arg {
          name: "input"
          type_attr: "T"
        }
        input_arg {
          name: "begin"
          type_attr: "Index"
        }
        input_arg {
          name: "end"
          type_attr: "Index"
        }
        input_arg {
          name: "strides"
          type_attr: "Index"
        }
        output_arg {
          name: "output"
          type_attr: "T"
        }
        attr {
          name: "T"
          type: "type"
        }
        attr {
          name: "Index"
          type: "type"
          allowed_values {
            list {
              type: DT_INT32
              type: DT_INT64
            }
          }
        }
        attr {
          name: "begin_mask"
          type: "int"
          default_value {
            i: 0
          }
        }
        attr {
          name: "end_mask"
          type: "int"
          default_value {
            i: 0
          }
        }
        attr {
          name: "ellipsis_mask"
          type: "int"
          default_value {
            i: 0
          }
        }
        attr {
          name: "new_axis_mask"
          type: "int"
          default_value {
            i: 0
          }
        }
        attr {
          name: "shrink_axis_mask"
          type: "int"
          default_value {
            i: 0
          }
        }
      }
      op {
        name: "StringJoin"
        input_arg {
          name: "inputs"
          type: DT_STRING
          number_attr: "N"
        }
        output_arg {
          name: "output"
          type: DT_STRING
        }
        attr {
          name: "N"
          type: "int"
          has_minimum: true
          minimum: 1
        }
        attr {
          name: "separator"
          type: "string"
          default_value {
            s: ""
          }
        }
      }
      op {
        name: "StringSplit"
        input_arg {
          name: "input"
          type: DT_STRING
        }
        input_arg {
          name: "delimiter"
          type: DT_STRING
        }
        output_arg {
          name: "indices"
          type: DT_INT64
        }
        output_arg {
          name: "values"
          type: DT_STRING
        }
        output_arg {
          name: "shape"
          type: DT_INT64
        }
        attr {
          name: "skip_empty"
          type: "bool"
          default_value {
            b: true
          }
        }
      }
      op {
        name: "Sub"
        input_arg {
          name: "x"
          type_attr: "T"
        }
        input_arg {
          name: "y"
          type_attr: "T"
        }
        output_arg {
          name: "z"
          type_attr: "T"
        }
        attr {
          name: "T"
          type: "type"
          allowed_values {
            list {
              type: DT_BFLOAT16
              type: DT_HALF
              type: DT_FLOAT
              type: DT_DOUBLE
              type: DT_UINT8
              type: DT_INT8
              type: DT_UINT16
              type: DT_INT16
              type: DT_INT32
              type: DT_INT64
              type: DT_COMPLEX64
              type: DT_COMPLEX128
            }
          }
        }
      }
      op {
        name: "Switch"
        input_arg {
          name: "data"
          type_attr: "T"
        }
        input_arg {
          name: "pred"
          type: DT_BOOL
        }
        output_arg {
          name: "output_false"
          type_attr: "T"
        }
        output_arg {
          name: "output_true"
          type_attr: "T"
        }
        attr {
          name: "T"
          type: "type"
        }
      }
      op {
        name: "Tanh"
        input_arg {
          name: "x"
          type_attr: "T"
        }
        output_arg {
          name: "y"
          type_attr: "T"
        }
        attr {
          name: "T"
          type: "type"
          allowed_values {
            list {
              type: DT_BFLOAT16
              type: DT_HALF
              type: DT_FLOAT
              type: DT_DOUBLE
              type: DT_COMPLEX64
              type: DT_COMPLEX128
            }
          }
        }
      }
      op {
        name: "TensorArrayGatherV3"
        input_arg {
          name: "handle"
          type: DT_RESOURCE
        }
        input_arg {
          name: "indices"
          type: DT_INT32
        }
        input_arg {
          name: "flow_in"
          type: DT_FLOAT
        }
        output_arg {
          name: "value"
          type_attr: "dtype"
        }
        attr {
          name: "dtype"
          type: "type"
        }
        attr {
          name: "element_shape"
          type: "shape"
          default_value {
            shape {
              unknown_rank: true
            }
          }
        }
        is_stateful: true
      }
      op {
        name: "TensorArrayReadV3"
        input_arg {
          name: "handle"
          type: DT_RESOURCE
        }
        input_arg {
          name: "index"
          type: DT_INT32
        }
        input_arg {
          name: "flow_in"
          type: DT_FLOAT
        }
        output_arg {
          name: "value"
          type_attr: "dtype"
        }
        attr {
          name: "dtype"
          type: "type"
        }
        is_stateful: true
      }
      op {
        name: "TensorArrayScatterV3"
        input_arg {
          name: "handle"
          type: DT_RESOURCE
        }
        input_arg {
          name: "indices"
          type: DT_INT32
        }
        input_arg {
          name: "value"
          type_attr: "T"
        }
        input_arg {
          name: "flow_in"
          type: DT_FLOAT
        }
        output_arg {
          name: "flow_out"
          type: DT_FLOAT
        }
        attr {
          name: "T"
          type: "type"
        }
        is_stateful: true
      }
      op {
        name: "TensorArraySizeV3"
        input_arg {
          name: "handle"
          type: DT_RESOURCE
        }
        input_arg {
          name: "flow_in"
          type: DT_FLOAT
        }
        output_arg {
          name: "size"
          type: DT_INT32
        }
        is_stateful: true
      }
      op {
        name: "TensorArrayV3"
        input_arg {
          name: "size"
          type: DT_INT32
        }
        output_arg {
          name: "handle"
          type: DT_RESOURCE
        }
        output_arg {
          name: "flow"
          type: DT_FLOAT
        }
        attr {
          name: "dtype"
          type: "type"
        }
        attr {
          name: "element_shape"
          type: "shape"
          default_value {
            shape {
              unknown_rank: true
            }
          }
        }
        attr {
          name: "dynamic_size"
          type: "bool"
          default_value {
            b: false
          }
        }
        attr {
          name: "clear_after_read"
          type: "bool"
          default_value {
            b: true
          }
        }
        attr {
          name: "identical_element_shapes"
          type: "bool"
          default_value {
            b: false
          }
        }
        attr {
          name: "tensor_array_name"
          type: "string"
          default_value {
            s: ""
          }
        }
        is_stateful: true
      }
      op {
        name: "TensorArrayWriteV3"
        input_arg {
          name: "handle"
          type: DT_RESOURCE
        }
        input_arg {
          name: "index"
          type: DT_INT32
        }
        input_arg {
          name: "value"
          type_attr: "T"
        }
        input_arg {
          name: "flow_in"
          type: DT_FLOAT
        }
        output_arg {
          name: "flow_out"
          type: DT_FLOAT
        }
        attr {
          name: "T"
          type: "type"
        }
        is_stateful: true
      }
      op {
        name: "Tile"
        input_arg {
          name: "input"
          type_attr: "T"
        }
        input_arg {
          name: "multiples"
          type_attr: "Tmultiples"
        }
        output_arg {
          name: "output"
          type_attr: "T"
        }
        attr {
          name: "T"
          type: "type"
        }
        attr {
          name: "Tmultiples"
          type: "type"
          default_value {
            type: DT_INT32
          }
          allowed_values {
            list {
              type: DT_INT32
              type: DT_INT64
            }
          }
        }
      }
      op {
        name: "Transpose"
        input_arg {
          name: "x"
          type_attr: "T"
        }
        input_arg {
          name: "perm"
          type_attr: "Tperm"
        }
        output_arg {
          name: "y"
          type_attr: "T"
        }
        attr {
          name: "T"
          type: "type"
        }
        attr {
          name: "Tperm"
          type: "type"
          default_value {
            type: DT_INT32
          }
          allowed_values {
            list {
              type: DT_INT32
              type: DT_INT64
            }
          }
        }
      }
      op {
        name: "VariableV2"
        output_arg {
          name: "ref"
          type_attr: "dtype"
          is_ref: true
        }
        attr {
          name: "shape"
          type: "shape"
        }
        attr {
          name: "dtype"
          type: "type"
        }
        attr {
          name: "container"
          type: "string"
          default_value {
            s: ""
          }
        }
        attr {
          name: "shared_name"
          type: "string"
          default_value {
            s: ""
          }
        }
        is_stateful: true
      }
    }
    tags: "serve"
    tensorflow_version: "1.10.1"
    tensorflow_git_version: "v1.10.1-0-g4dcfddc5d1"
  }
  graph_def {
    node {
      name: "string_to_index/hash_table"
      op: "HashTableV2"
      attr {
        key: "_output_shapes"
        value {
          list {
            shape {
            }
          }
        }
      }
      attr {
        key: "container"
        value {
          s: "infer"
        }
      }
      attr {
        key: "key_dtype"
        value {
          type: DT_STRING
        }
      }
      attr {
        key: "shared_name"
        value {
          s: "hash_table_/home/bjoshi/tfserving/nmt_data/vocab.en_-2_-1"
        }
      }
      attr {
        key: "use_node_name_sharing"
        value {
          b: false
        }
      }
      attr {
        key: "value_dtype"
        value {
          type: DT_INT64
        }
      }
    }
    node {
      name: "string_to_index/hash_table/Const"
      op: "Const"
      attr {
        key: "_output_shapes"
        value {
          list {
            shape {
            }
          }
        }
      }
      attr {
        key: "dtype"
        value {
          type: DT_INT64
        }
      }
      attr {
        key: "value"
        value {
          tensor {
            dtype: DT_INT64
            tensor_shape {
            }
            int64_val: 0
          }
        }
      }
    }
    node {
      name: "string_to_index/hash_table/table_init/asset_filepath"
      op: "Const"
      attr {
        key: "_output_shapes"
        value {
          list {
            shape {
            }
          }
        }
      }
      attr {
        key: "dtype"
        value {
          type: DT_STRING
        }
      }
      attr {
        key: "value"
        value {
          tensor {
            dtype: DT_STRING
            tensor_shape {
            }
            string_val: "/home/bjoshi/tfserving/nmt_data/vocab.en"
          }
        }
      }
    }
    node {
      name: "string_to_index/hash_table/table_init"
      op: "InitializeTableFromTextFileV2"
      input: "string_to_index/hash_table"
      input: "string_to_index/hash_table/table_init/asset_filepath"
      attr {
        key: "delimiter"
        value {
          s: "\t"
        }
      }
      attr {
        key: "key_index"
        value {
          i: -2
        }
      }
      attr {
        key: "value_index"
        value {
          i: -1
        }
      }
      attr {
        key: "vocab_size"
        value {
          i: -1
        }
      }
    }
    node {
      name: "string_to_index_1/hash_table"
      op: "HashTableV2"
      attr {
        key: "_output_shapes"
        value {
          list {
            shape {
            }
          }
        }
      }
      attr {
        key: "container"
        value {
          s: "infer"
        }
      }
      attr {
        key: "key_dtype"
        value {
          type: DT_STRING
        }
      }
      attr {
        key: "shared_name"
        value {
          s: "hash_table_/home/bjoshi/tfserving/nmt_data/vocab.vi_-2_-1"
        }
      }
      attr {
        key: "use_node_name_sharing"
        value {
          b: false
        }
      }
      attr {
        key: "value_dtype"
        value {
          type: DT_INT64
        }
      }
    }
    node {
      name: "string_to_index_1/hash_table/Const"
      op: "Const"
      attr {
        key: "_output_shapes"
        value {
          list {
            shape {
            }
          }
        }
      }
      attr {
        key: "dtype"
        value {
          type: DT_INT64
        }
      }
      attr {
        key: "value"
        value {
          tensor {
            dtype: DT_INT64
            tensor_shape {
            }
            int64_val: 0
          }
        }
      }
    }
    node {
      name: "string_to_index_1/hash_table/table_init/asset_filepath"
      op: "Const"
      attr {
        key: "_output_shapes"
        value {
          list {
            shape {
            }
          }
        }
      }
      attr {
        key: "dtype"
        value {
          type: DT_STRING
        }
      }
      attr {
        key: "value"
        value {
          tensor {
            dtype: DT_STRING
            tensor_shape {
            }
            string_val: "/home/bjoshi/tfserving/nmt_data/vocab.vi"
          }
        }
      }
    }
    node {
      name: "string_to_index_1/hash_table/table_init"
      op: "InitializeTableFromTextFileV2"
      input: "string_to_index_1/hash_table"
      input: "string_to_index_1/hash_table/table_init/asset_filepath"
      attr {
        key: "delimiter"
        value {
          s: "\t"
        }
      }
      attr {
        key: "key_index"
        value {
          i: -2
        }
      }
      attr {
        key: "value_index"
        value {
          i: -1
        }
      }
      attr {
        key: "vocab_size"
        value {
          i: -1
        }
      }
    }
    node {
      name: "index_to_string"
      op: "HashTableV2"
      attr {
        key: "_output_shapes"
        value {
          list {
            shape {
            }
          }
        }
      }
      attr {
        key: "container"
        value {
          s: "infer"
        }
      }
      attr {
        key: "key_dtype"
        value {
          type: DT_INT64
        }
      }
      attr {
        key: "shared_name"
        value {
          s: "hash_table_/home/bjoshi/tfserving/nmt_data/vocab.vi_-1_-2"
        }
      }
      attr {
        key: "use_node_name_sharing"
        value {
          b: false
        }
      }
      attr {
        key: "value_dtype"
        value {
          type: DT_STRING
        }
      }
    }
    node {
      name: "index_to_string/Const"
      op: "Const"
      attr {
        key: "_output_shapes"
        value {
          list {
            shape {
            }
          }
        }
      }
      attr {
        key: "dtype"
        value {
          type: DT_STRING
        }
      }
      attr {
        key: "value"
        value {
          tensor {
            dtype: DT_STRING
            tensor_shape {
            }
            string_val: "<unk>"
          }
        }
      }
    }
    node {
      name: "index_to_string/table_init/asset_filepath"
      op: "Const"
      attr {
        key: "_output_shapes"
        value {
          list {
            shape {
            }
          }
        }
      }
      attr {
        key: "dtype"
        value {
          type: DT_STRING
        }
      }
      attr {
        key: "value"
        value {
          tensor {
            dtype: DT_STRING
            tensor_shape {
            }
            string_val: "/home/bjoshi/tfserving/nmt_data/vocab.vi"
          }
        }
      }
    }
    node {
      name: "index_to_string/table_init"
      op: "InitializeTableFromTextFileV2"
      input: "index_to_string"
      input: "index_to_string/table_init/asset_filepath"
      attr {
        key: "delimiter"
        value {
          s: "\t"
        }
      }
      attr {
        key: "key_index"
        value {
          i: -1
        }
      }
      attr {
        key: "value_index"
        value {
          i: -2
        }
      }
      attr {
        key: "vocab_size"
        value {
          i: -1
        }
      }
    }
    node {
      name: "src_placeholder"
      op: "Placeholder"
      attr {
        key: "_output_shapes"
        value {
          list {
            shape {
              unknown_rank: true
            }
          }
        }
      }
      attr {
        key: "dtype"
        value {
          type: DT_STRING
        }
      }
      attr {
        key: "shape"
        value {
          shape {
            unknown_rank: true
          }
        }
      }
    }
    node {
      name: "Const"
      op: "Const"
      attr {
        key: "_output_shapes"
        value {
          list {
            shape {
            }
          }
        }
      }
      attr {
        key: "dtype"
        value {
          type: DT_INT64
        }
      }
      attr {
        key: "value"
        value {
          tensor {
            dtype: DT_INT64
            tensor_shape {
            }
            int64_val: 1
          }
        }
      }
    }
    node {
      name: "Const_1"
      op: "Const"
      attr {
        key: "_output_shapes"
        value {
          list {
            shape {
            }
          }
        }
      }
      attr {
        key: "dtype"
        value {
          type: DT_STRING
        }
      }
      attr {
        key: "value"
        value {
          tensor {
            dtype: DT_STRING
            tensor_shape {
            }
            string_val: "</s>"
          }
        }
      }
    }
    node {
      name: "hash_table_Lookup"
      op: "LookupTableFindV2"
      input: "string_to_index/hash_table"
      input: "Const_1"
      input: "string_to_index/hash_table/Const"
      attr {
        key: "Tin"
        value {
          type: DT_STRING
        }
      }
      attr {
        key: "Tout"
        value {
          type: DT_INT64
        }
      }
      attr {
        key: "_output_shapes"
        value {
          list {
            shape {
            }
          }
        }
      }
    }
    node {
      name: "Cast"
      op: "Cast"
      input: "hash_table_Lookup"
      attr {
        key: "DstT"
        value {
          type: DT_INT32
        }
      }
      attr {
        key: "SrcT"
        value {
          type: DT_INT64
        }
      }
      attr {
        key: "_output_shapes"
        value {
          list {
            shape {
            }
          }
        }
      }
    }
    node {
      name: "Const_2"
      op: "Const"
      attr {
        key: "_output_shapes"
        value {
          list {
            shape {
            }
          }
        }
      }
      attr {
        key: "dtype"
        value {
          type: DT_STRING
        }
      }
      attr {
        key: "value"
        value {
          tensor {
            dtype: DT_STRING
            tensor_shape {
            }
            string_val: " "
          }
        }
      }
    }
    node {
      name: "StringSplit"
      op: "StringSplit"
      input: "src_placeholder"
      input: "Const_2"
      attr {
        key: "_output_shapes"
        value {
          list {
            shape {
              dim {
                size: -1
              }
              dim {
                size: 2
              }
            }
            shape {
              dim {
                size: -1
              }
            }
            shape {
              dim {
                size: 2
              }
            }
          }
        }
      }
      attr {
        key: "skip_empty"
        value {
          b: true
        }
      }
    }
    node {
      name: "hash_table_Lookup_1"
      op: "LookupTableFindV2"
      input: "string_to_index/hash_table"
      input: "StringSplit:1"
      input: "string_to_index/hash_table/Const"
      attr {
        key: "Tin"
        value {
          type: DT_STRING
        }
      }
      attr {
        key: "Tout"
        value {
          type: DT_INT64
        }
      }
      attr {
        key: "_output_shapes"
        value {
          list {
            shape {
              dim {
                size: -1
              }
            }
          }
        }
      }
    }
    node {
      name: "Cast_1"
      op: "Cast"
      input: "hash_table_Lookup_1"
      attr {
        key: "DstT"
        value {
          type: DT_INT32
        }
      }
      attr {
        key: "SrcT"
        value {
          type: DT_INT64
        }
      }
      attr {
        key: "_output_shapes"
        value {
          list {
            shape {
              dim {
                size: -1
              }
            }
          }
        }
      }
    }
    node {
      name: "ExpandDims/dim"
      op: "Const"
      attr {
        key: "_output_shapes"
        value {
          list {
            shape {
            }
          }
        }
      }
      attr {
        key: "dtype"
        value {
          type: DT_INT32
        }
      }
      attr {
        key: "value"
        value {
          tensor {
            dtype: DT_INT32
            tensor_shape {
            }
            int_val: 0
          }
        }
      }
    }
    node {
      name: "ExpandDims"
      op: "ExpandDims"
      input: "Cast_1"
      input: "ExpandDims/dim"
      attr {
        key: "T"
        value {
          type: DT_INT32
        }
      }
      attr {
        key: "Tdim"
        value {
          type: DT_INT32
        }
      }
      attr {
        key: "_output_shapes"
        value {
          list {
            shape {
              dim {
                size: 1
              }
              dim {
                size: -1
              }
            }
          }
        }
      }
    }
    node {
      name: "Size"
      op: "Size"
      input: "ExpandDims"
      attr {
        key: "T"
        value {
          type: DT_INT32
        }
      }
      attr {
        key: "_output_shapes"
        value {
          list {
            shape {
            }
          }
        }
      }
      attr {
        key: "out_type"
        value {
          type: DT_INT32
        }
      }
    }
    node {
      name: "ExpandDims_1/dim"
      op: "Const"
      attr {
        key: "_output_shapes"
        value {
          list {
            shape {
            }
          }
        }
      }
      attr {
        key: "dtype"
        value {
          type: DT_INT32
        }
      }
      attr {
        key: "value"
        value {
          tensor {
            dtype: DT_INT32
            tensor_shape {
            }
            int_val: 0
          }
        }
      }
    }
    node {
      name: "ExpandDims_1"
      op: "ExpandDims"
      input: "Size"
      input: "ExpandDims_1/dim"
      attr {
        key: "T"
        value {
          type: DT_INT32
        }
      }
      attr {
        key: "Tdim"
        value {
          type: DT_INT32
        }
      }
      attr {
        key: "_output_shapes"
        value {
          list {
            shape {
              dim {
                size: 1
              }
            }
          }
        }
      }
    }
    node {
      name: "Size_1"
      op: "Const"
      attr {
        key: "_output_shapes"
        value {
          list {
            shape {
            }
          }
        }
      }
      attr {
        key: "dtype"
        value {
          type: DT_INT32
        }
      }
      attr {
        key: "value"
        value {
          tensor {
            dtype: DT_INT32
            tensor_shape {
            }
            int_val: 1
          }
        }
      }
    }
    node {
      name: "Variable/initial_value"
      op: "Const"
      attr {
        key: "_output_shapes"
        value {
          list {
            shape {
            }
          }
        }
      }
      attr {
        key: "dtype"
        value {
          type: DT_INT32
        }
      }
      attr {
        key: "value"
        value {
          tensor {
            dtype: DT_INT32
            tensor_shape {
            }
            int_val: 0
          }
        }
      }
    }
    node {
      name: "Variable"
      op: "VariableV2"
      attr {
        key: "_output_shapes"
        value {
          list {
            shape {
            }
          }
        }
      }
      attr {
        key: "container"
        value {
          s: "infer"
        }
      }
      attr {
        key: "dtype"
        value {
          type: DT_INT32
        }
      }
      attr {
        key: "shape"
        value {
          shape {
          }
        }
      }
      attr {
        key: "shared_name"
        value {
          s: ""
        }
      }
    }
    node {
      name: "Variable/Assign"
      op: "Assign"
      input: "Variable"
      input: "Variable/initial_value"
      attr {
        key: "T"
        value {
          type: DT_INT32
        }
      }
      attr {
        key: "_class"
        value {
          list {
            s: "loc:@Variable"
          }
        }
      }
      attr {
        key: "_output_shapes"
        value {
          list {
            shape {
            }
          }
        }
      }
      attr {
        key: "use_locking"
        value {
          b: true
        }
      }
      attr {
        key: "validate_shape"
        value {
          b: true
        }
      }
    }
    node {
      name: "Variable/read"
      op: "Identity"
      input: "Variable"
      attr {
        key: "T"
        value {
          type: DT_INT32
        }
      }
      attr {
        key: "_class"
        value {
          list {
            s: "loc:@Variable"
          }
        }
      }
      attr {
        key: "_output_shapes"
        value {
          list {
            shape {
            }
          }
        }
      }
    }
    node {
      name: "embeddings/encoder/embedding_encoder/Initializer/random_uniform/shape"
      op: "Const"
      attr {
        key: "_class"
        value {
          list {
            s: "loc:@embeddings/encoder/embedding_encoder"
          }
        }
      }
      attr {
        key: "_output_shapes"
        value {
          list {
            shape {
              dim {
                size: 2
              }
            }
          }
        }
      }
      attr {
        key: "dtype"
        value {
          type: DT_INT32
        }
      }
      attr {
        key: "value"
        value {
          tensor {
            dtype: DT_INT32
            tensor_shape {
              dim {
                size: 2
              }
            }
            tensor_content: "\'C\000\000\000\002\000\000"
          }
        }
      }
    }
    node {
      name: "embeddings/encoder/embedding_encoder/Initializer/random_uniform/min"
      op: "Const"
      attr {
        key: "_class"
        value {
          list {
            s: "loc:@embeddings/encoder/embedding_encoder"
          }
        }
      }
      attr {
        key: "_output_shapes"
        value {
          list {
            shape {
            }
          }
        }
      }
      attr {
        key: "dtype"
        value {
          type: DT_FLOAT
        }
      }
      attr {
        key: "value"
        value {
          tensor {
            dtype: DT_FLOAT
            tensor_shape {
            }
            float_val: -0.10000000149
          }
        }
      }
    }
    node {
      name: "embeddings/encoder/embedding_encoder/Initializer/random_uniform/max"
      op: "Const"
      attr {
        key: "_class"
        value {
          list {
            s: "loc:@embeddings/encoder/embedding_encoder"
          }
        }
      }
      attr {
        key: "_output_shapes"
        value {
          list {
            shape {
            }
          }
        }
      }
      attr {
        key: "dtype"
        value {
          type: DT_FLOAT
        }
      }
      attr {
        key: "value"
        value {
          tensor {
            dtype: DT_FLOAT
            tensor_shape {
            }
            float_val: 0.10000000149
          }
        }
      }
    }
    node {
      name: "embeddings/encoder/embedding_encoder/Initializer/random_uniform/RandomUniform"
      op: "RandomUniform"
      input: "embeddings/encoder/embedding_encoder/Initializer/random_uniform/shape"
      attr {
        key: "T"
        value {
          type: DT_INT32
        }
      }
      attr {
        key: "_class"
        value {
          list {
            s: "loc:@embeddings/encoder/embedding_encoder"
          }
        }
      }
      attr {
        key: "_output_shapes"
        value {
          list {
            shape {
              dim {
                size: 17191
              }
              dim {
                size: 512
              }
            }
          }
        }
      }
      attr {
        key: "dtype"
        value {
          type: DT_FLOAT
        }
      }
      attr {
        key: "seed"
        value {
          i: 0
        }
      }
      attr {
        key: "seed2"
        value {
          i: 0
        }
      }
    }
    node {
      name: "embeddings/encoder/embedding_encoder/Initializer/random_uniform/sub"
      op: "Sub"
      input: "embeddings/encoder/embedding_encoder/Initializer/random_uniform/max"
      input: "embeddings/encoder/embedding_encoder/Initializer/random_uniform/min"
      attr {
        key: "T"
        value {
          type: DT_FLOAT
        }
      }
      attr {
        key: "_class"
        value {
          list {
            s: "loc:@embeddings/encoder/embedding_encoder"
          }
        }
      }
      attr {
        key: "_output_shapes"
        value {
          list {
            shape {
            }
          }
        }
      }
    }
    node {
      name: "embeddings/encoder/embedding_encoder/Initializer/random_uniform/mul"
      op: "Mul"
      input: "embeddings/encoder/embedding_encoder/Initializer/random_uniform/RandomUniform"
      input: "embeddings/encoder/embedding_encoder/Initializer/random_uniform/sub"
      attr {
        key: "T"
        value {
          type: DT_FLOAT
        }
      }
      attr {
        key: "_class"
        value {
          list {
            s: "loc:@embeddings/encoder/embedding_encoder"
          }
        }
      }
      attr {
        key: "_output_shapes"
        value {
          list {
            shape {
              dim {
                size: 17191
              }
              dim {
                size: 512
              }
            }
          }
        }
      }
    }
    node {
      name: "embeddings/encoder/embedding_encoder/Initializer/random_uniform"
      op: "Add"
      input: "embeddings/encoder/embedding_encoder/Initializer/random_uniform/mul"
      input: "embeddings/encoder/embedding_encoder/Initializer/random_uniform/min"
      attr {
        key: "T"
        value {
          type: DT_FLOAT
        }
      }
      attr {
        key: "_class"
        value {
          list {
            s: "loc:@embeddings/encoder/embedding_encoder"
          }
        }
      }
      attr {
        key: "_output_shapes"
        value {
          list {
            shape {
              dim {
                size: 17191
              }
              dim {
                size: 512
              }
            }
          }
        }
      }
    }
    node {
      name: "embeddings/encoder/embedding_encoder"
      op: "VariableV2"
      attr {
        key: "_class"
        value {
          list {
            s: "loc:@embeddings/encoder/embedding_encoder"
          }
        }
      }
      attr {
        key: "_output_shapes"
        value {
          list {
            shape {
              dim {
                size: 17191
              }
              dim {
                size: 512
              }
            }
          }
        }
      }
      attr {
        key: "container"
        value {
          s: "infer"
        }
      }
      attr {
        key: "dtype"
        value {
          type: DT_FLOAT
        }
      }
      attr {
        key: "shape"
        value {
          shape {
            dim {
              size: 17191
            }
            dim {
              size: 512
            }
          }
        }
      }
      attr {
        key: "shared_name"
        value {
          s: ""
        }
      }
    }
    node {
      name: "embeddings/encoder/embedding_encoder/Assign"
      op: "Assign"
      input: "embeddings/encoder/embedding_encoder"
      input: "embeddings/encoder/embedding_encoder/Initializer/random_uniform"
      attr {
        key: "T"
        value {
          type: DT_FLOAT
        }
      }
      attr {
        key: "_class"
        value {
          list {
            s: "loc:@embeddings/encoder/embedding_encoder"
          }
        }
      }
      attr {
        key: "_output_shapes"
        value {
          list {
            shape {
              dim {
                size: 17191
              }
              dim {
                size: 512
              }
            }
          }
        }
      }
      attr {
        key: "use_locking"
        value {
          b: true
        }
      }
      attr {
        key: "validate_shape"
        value {
          b: true
        }
      }
    }
    node {
      name: "embeddings/encoder/embedding_encoder/read"
      op: "Identity"
      input: "embeddings/encoder/embedding_encoder"
      attr {
        key: "T"
        value {
          type: DT_FLOAT
        }
      }
      attr {
        key: "_class"
        value {
          list {
            s: "loc:@embeddings/encoder/embedding_encoder"
          }
        }
      }
      attr {
        key: "_output_shapes"
        value {
          list {
            shape {
              dim {
                size: 17191
              }
              dim {
                size: 512
              }
            }
          }
        }
      }
    }
    node {
      name: "embeddings/decoder/embedding_decoder/Initializer/random_uniform/shape"
      op: "Const"
      attr {
        key: "_class"
        value {
          list {
            s: "loc:@embeddings/decoder/embedding_decoder"
          }
        }
      }
      attr {
        key: "_output_shapes"
        value {
          list {
            shape {
              dim {
                size: 2
              }
            }
          }
        }
      }
      attr {
        key: "dtype"
        value {
          type: DT_INT32
        }
      }
      attr {
        key: "value"
        value {
          tensor {
            dtype: DT_INT32
            tensor_shape {
              dim {
                size: 2
              }
            }
            tensor_content: "\035\036\000\000\000\002\000\000"
          }
        }
      }
    }
    node {
      name: "embeddings/decoder/embedding_decoder/Initializer/random_uniform/min"
      op: "Const"
      attr {
        key: "_class"
        value {
          list {
            s: "loc:@embeddings/decoder/embedding_decoder"
          }
        }
      }
      attr {
        key: "_output_shapes"
        value {
          list {
            shape {
            }
          }
        }
      }
      attr {
        key: "dtype"
        value {
          type: DT_FLOAT
        }
      }
      attr {
        key: "value"
        value {
          tensor {
            dtype: DT_FLOAT
            tensor_shape {
            }
            float_val: -0.10000000149
          }
        }
      }
    }
    node {
      name: "embeddings/decoder/embedding_decoder/Initializer/random_uniform/max"
      op: "Const"
      attr {
        key: "_class"
        value {
          list {
            s: "loc:@embeddings/decoder/embedding_decoder"
          }
        }
      }
      attr {
        key: "_output_shapes"
        value {
          list {
            shape {
            }
          }
        }
      }
      attr {
        key: "dtype"
        value {
          type: DT_FLOAT
        }
      }
      attr {
        key: "value"
        value {
          tensor {
            dtype: DT_FLOAT
            tensor_shape {
            }
            float_val: 0.10000000149
          }
        }
      }
    }
    node {
      name: "embeddings/decoder/embedding_decoder/Initializer/random_uniform/RandomUniform"
      op: "RandomUniform"
      input: "embeddings/decoder/embedding_decoder/Initializer/random_uniform/shape"
      attr {
        key: "T"
        value {
          type: DT_INT32
        }
      }
      attr {
        key: "_class"
        value {
          list {
            s: "loc:@embeddings/decoder/embedding_decoder"
          }
        }
      }
      attr {
        key: "_output_shapes"
        value {
          list {
            shape {
              dim {
                size: 7709
              }
              dim {
                size: 512
              }
            }
          }
        }
      }
      attr {
        key: "dtype"
        value {
          type: DT_FLOAT
        }
      }
      attr {
        key: "seed"
        value {
          i: 0
        }
      }
      attr {
        key: "seed2"
        value {
          i: 0
        }
      }
    }
    node {
      name: "embeddings/decoder/embedding_decoder/Initializer/random_uniform/sub"
      op: "Sub"
      input: "embeddings/decoder/embedding_decoder/Initializer/random_uniform/max"
      input: "embeddings/decoder/embedding_decoder/Initializer/random_uniform/min"
      attr {
        key: "T"
        value {
          type: DT_FLOAT
        }
      }
      attr {
        key: "_class"
        value {
          list {
            s: "loc:@embeddings/decoder/embedding_decoder"
          }
        }
      }
      attr {
        key: "_output_shapes"
        value {
          list {
            shape {
            }
          }
        }
      }
    }
    node {
      name: "embeddings/decoder/embedding_decoder/Initializer/random_uniform/mul"
      op: "Mul"
      input: "embeddings/decoder/embedding_decoder/Initializer/random_uniform/RandomUniform"
      input: "embeddings/decoder/embedding_decoder/Initializer/random_uniform/sub"
      attr {
        key: "T"
        value {
          type: DT_FLOAT
        }
      }
      attr {
        key: "_class"
        value {
          list {
            s: "loc:@embeddings/decoder/embedding_decoder"
          }
        }
      }
      attr {
        key: "_output_shapes"
        value {
          list {
            shape {
              dim {
                size: 7709
              }
              dim {
                size: 512
              }
            }
          }
        }
      }
    }
    node {
      name: "embeddings/decoder/embedding_decoder/Initializer/random_uniform"
      op: "Add"
      input: "embeddings/decoder/embedding_decoder/Initializer/random_uniform/mul"
      input: "embeddings/decoder/embedding_decoder/Initializer/random_uniform/min"
      attr {
        key: "T"
        value {
          type: DT_FLOAT
        }
      }
      attr {
        key: "_class"
        value {
          list {
            s: "loc:@embeddings/decoder/embedding_decoder"
          }
        }
      }
      attr {
        key: "_output_shapes"
        value {
          list {
            shape {
              dim {
                size: 7709
              }
              dim {
                size: 512
              }
            }
          }
        }
      }
    }
    node {
      name: "embeddings/decoder/embedding_decoder"
      op: "VariableV2"
      attr {
        key: "_class"
        value {
          list {
            s: "loc:@embeddings/decoder/embedding_decoder"
          }
        }
      }
      attr {
        key: "_output_shapes"
        value {
          list {
            shape {
              dim {
                size: 7709
              }
              dim {
                size: 512
              }
            }
          }
        }
      }
      attr {
        key: "container"
        value {
          s: "infer"
        }
      }
      attr {
        key: "dtype"
        value {
          type: DT_FLOAT
        }
      }
      attr {
        key: "shape"
        value {
          shape {
            dim {
              size: 7709
            }
            dim {
              size: 512
            }
          }
        }
      }
      attr {
        key: "shared_name"
        value {
          s: ""
        }
      }
    }
    node {
      name: "embeddings/decoder/embedding_decoder/Assign"
      op: "Assign"
      input: "embeddings/decoder/embedding_decoder"
      input: "embeddings/decoder/embedding_decoder/Initializer/random_uniform"
      attr {
        key: "T"
        value {
          type: DT_FLOAT
        }
      }
      attr {
        key: "_class"
        value {
          list {
            s: "loc:@embeddings/decoder/embedding_decoder"
          }
        }
      }
      attr {
        key: "_output_shapes"
        value {
          list {
            shape {
              dim {
                size: 7709
              }
              dim {
                size: 512
              }
            }
          }
        }
      }
      attr {
        key: "use_locking"
        value {
          b: true
        }
      }
      attr {
        key: "validate_shape"
        value {
          b: true
        }
      }
    }
    node {
      name: "embeddings/decoder/embedding_decoder/read"
      op: "Identity"
      input: "embeddings/decoder/embedding_decoder"
      attr {
        key: "T"
        value {
          type: DT_FLOAT
        }
      }
      attr {
        key: "_class"
        value {
          list {
            s: "loc:@embeddings/decoder/embedding_decoder"
          }
        }
      }
      attr {
        key: "_output_shapes"
        value {
          list {
            shape {
              dim {
                size: 7709
              }
              dim {
                size: 512
              }
            }
          }
        }
      }
    }
    node {
      name: "dynamic_seq2seq/transpose/Rank"
      op: "Rank"
      input: "ExpandDims"
      attr {
        key: "T"
        value {
          type: DT_INT32
        }
      }
      attr {
        key: "_output_shapes"
        value {
          list {
            shape {
            }
          }
        }
      }
    }
    node {
      name: "dynamic_seq2seq/transpose/sub/y"
      op: "Const"
      attr {
        key: "_output_shapes"
        value {
          list {
            shape {
            }
          }
        }
      }
      attr {
        key: "dtype"
        value {
          type: DT_INT32
        }
      }
      attr {
        key: "value"
        value {
          tensor {
            dtype: DT_INT32
            tensor_shape {
            }
            int_val: 1
          }
        }
      }
    }
    node {
      name: "dynamic_seq2seq/transpose/sub"
      op: "Sub"
      input: "dynamic_seq2seq/transpose/Rank"
      input: "dynamic_seq2seq/transpose/sub/y"
      attr {
        key: "T"
        value {
          type: DT_INT32
        }
      }
      attr {
        key: "_output_shapes"
        value {
          list {
            shape {
            }
          }
        }
      }
    }
    node {
      name: "dynamic_seq2seq/transpose/Range/start"
      op: "Const"
      attr {
        key: "_output_shapes"
        value {
          list {
            shape {
            }
          }
        }
      }
      attr {
        key: "dtype"
        value {
          type: DT_INT32
        }
      }
      attr {
        key: "value"
        value {
          tensor {
            dtype: DT_INT32
            tensor_shape {
            }
            int_val: 0
          }
        }
      }
    }
    node {
      name: "dynamic_seq2seq/transpose/Range/delta"
      op: "Const"
      attr {
        key: "_output_shapes"
        value {
          list {
            shape {
            }
          }
        }
      }
      attr {
        key: "dtype"
        value {
          type: DT_INT32
        }
      }
      attr {
        key: "value"
        value {
          tensor {
            dtype: DT_INT32
            tensor_shape {
            }
            int_val: 1
          }
        }
      }
    }
    node {
      name: "dynamic_seq2seq/transpose/Range"
      op: "Range"
      input: "dynamic_seq2seq/transpose/Range/start"
      input: "dynamic_seq2seq/transpose/Rank"
      input: "dynamic_seq2seq/transpose/Range/delta"
      attr {
        key: "Tidx"
        value {
          type: DT_INT32
        }
      }
      attr {
        key: "_output_shapes"
        value {
          list {
            shape {
              dim {
                size: -1
              }
            }
          }
        }
      }
    }
    node {
      name: "dynamic_seq2seq/transpose/sub_1"
      op: "Sub"
      input: "dynamic_seq2seq/transpose/sub"
      input: "dynamic_seq2seq/transpose/Range"
      attr {
        key: "T"
        value {
          type: DT_INT32
        }
      }
      attr {
        key: "_output_shapes"
        value {
          list {
            shape {
              dim {
                size: -1
              }
            }
          }
        }
      }
    }
    node {
      name: "dynamic_seq2seq/transpose"
      op: "Transpose"
      input: "ExpandDims"
      input: "dynamic_seq2seq/transpose/sub_1"
      attr {
        key: "T"
        value {
          type: DT_INT32
        }
      }
      attr {
        key: "Tperm"
        value {
          type: DT_INT32
        }
      }
      attr {
        key: "_output_shapes"
        value {
          list {
            shape {
              dim {
                size: -1
              }
              dim {
                size: 1
              }
            }
          }
        }
      }
    }
    node {
      name: "dynamic_seq2seq/encoder/embedding_lookup/axis"
      op: "Const"
      attr {
        key: "_class"
        value {
          list {
            s: "loc:@embeddings/encoder/embedding_encoder"
          }
        }
      }
      attr {
        key: "_output_shapes"
        value {
          list {
            shape {
            }
          }
        }
      }
      attr {
        key: "dtype"
        value {
          type: DT_INT32
        }
      }
      attr {
        key: "value"
        value {
          tensor {
            dtype: DT_INT32
            tensor_shape {
            }
            int_val: 0
          }
        }
      }
    }
    node {
      name: "dynamic_seq2seq/encoder/embedding_lookup"
      op: "GatherV2"
      input: "embeddings/encoder/embedding_encoder/read"
      input: "dynamic_seq2seq/transpose"
      input: "dynamic_seq2seq/encoder/embedding_lookup/axis"
      attr {
        key: "Taxis"
        value {
          type: DT_INT32
        }
      }
      attr {
        key: "Tindices"
        value {
          type: DT_INT32
        }
      }
      attr {
        key: "Tparams"
        value {
          type: DT_FLOAT
        }
      }
      attr {
        key: "_class"
        value {
          list {
            s: "loc:@embeddings/encoder/embedding_encoder"
          }
        }
      }
      attr {
        key: "_output_shapes"
        value {
          list {
            shape {
              dim {
                size: -1
              }
              dim {
                size: 1
              }
              dim {
                size: 512
              }
            }
          }
        }
      }
    }
    node {
      name: "dynamic_seq2seq/encoder/bidirectional_rnn/fw/fw/sequence_length"
      op: "Identity"
      input: "ExpandDims_1"
      attr {
        key: "T"
        value {
          type: DT_INT32
        }
      }
      attr {
        key: "_output_shapes"
        value {
          list {
            shape {
              dim {
                size: 1
              }
            }
          }
        }
      }
    }
    node {
      name: "dynamic_seq2seq/encoder/bidirectional_rnn/fw/fw/DeviceWrapperZeroState/BasicLSTMCellZeroState/Const"
      op: "Const"
      attr {
        key: "_output_shapes"
        value {
          list {
            shape {
              dim {
                size: 1
              }
            }
          }
        }
      }
      attr {
        key: "dtype"
        value {
          type: DT_INT32
        }
      }
      attr {
        key: "value"
        value {
          tensor {
            dtype: DT_INT32
            tensor_shape {
              dim {
                size: 1
              }
            }
            int_val: 1
          }
        }
      }
    }
    node {
      name: "dynamic_seq2seq/encoder/bidirectional_rnn/fw/fw/DeviceWrapperZeroState/BasicLSTMCellZeroState/Const_1"
      op: "Const"
      attr {
        key: "_output_shapes"
        value {
          list {
            shape {
              dim {
                size: 1
              }
            }
          }
        }
      }
      attr {
        key: "dtype"
        value {
          type: DT_INT32
        }
      }
      attr {
        key: "value"
        value {
          tensor {
            dtype: DT_INT32
            tensor_shape {
              dim {
                size: 1
              }
            }
            int_val: 512
          }
        }
      }
    }
    node {
      name: "dynamic_seq2seq/encoder/bidirectional_rnn/fw/fw/DeviceWrapperZeroState/BasicLSTMCellZeroState/concat/axis"
      op: "Const"
      attr {
        key: "_output_shapes"
        value {
          list {
            shape {
            }
          }
        }
      }
      attr {
        key: "dtype"
        value {
          type: DT_INT32
        }
      }
      attr {
        key: "value"
        value {
          tensor {
            dtype: DT_INT32
            tensor_shape {
            }
            int_val: 0
          }
        }
      }
    }
    node {
      name: "dynamic_seq2seq/encoder/bidirectional_rnn/fw/fw/DeviceWrapperZeroState/BasicLSTMCellZeroState/concat"
      op: "ConcatV2"
      input: "dynamic_seq2seq/encoder/bidirectional_rnn/fw/fw/DeviceWrapperZeroState/BasicLSTMCellZeroState/Const"
      input: "dynamic_seq2seq/encoder/bidirectional_rnn/fw/fw/DeviceWrapperZeroState/BasicLSTMCellZeroState/Const_1"
      input: "dynamic_seq2seq/encoder/bidirectional_rnn/fw/fw/DeviceWrapperZeroState/BasicLSTMCellZeroState/concat/axis"
      attr {
        key: "N"
        value {
          i: 2
        }
      }
      attr {
        key: "T"
        value {
          type: DT_INT32
        }
      }
      attr {
        key: "Tidx"
        value {
          type: DT_INT32
        }
      }
      attr {
        key: "_output_shapes"
        value {
          list {
            shape {
              dim {
                size: 2
              }
            }
          }
        }
      }
    }
    node {
      name: "dynamic_seq2seq/encoder/bidirectional_rnn/fw/fw/DeviceWrapperZeroState/BasicLSTMCellZeroState/zeros/Const"
      op: "Const"
      attr {
        key: "_output_shapes"
        value {
          list {
            shape {
            }
          }
        }
      }
      attr {
        key: "dtype"
        value {
          type: DT_FLOAT
        }
      }
      attr {
        key: "value"
        value {
          tensor {
            dtype: DT_FLOAT
            tensor_shape {
            }
            float_val: 0.0
          }
        }
      }
    }
    node {
      name: "dynamic_seq2seq/encoder/bidirectional_rnn/fw/fw/DeviceWrapperZeroState/BasicLSTMCellZeroState/zeros"
      op: "Fill"
      input: "dynamic_seq2seq/encoder/bidirectional_rnn/fw/fw/DeviceWrapperZeroState/BasicLSTMCellZeroState/concat"
      input: "dynamic_seq2seq/encoder/bidirectional_rnn/fw/fw/DeviceWrapperZeroState/BasicLSTMCellZeroState/zeros/Const"
      attr {
        key: "T"
        value {
          type: DT_FLOAT
        }
      }
      attr {
        key: "_output_shapes"
        value {
          list {
            shape {
              dim {
                size: 1
              }
              dim {
                size: 512
              }
            }
          }
        }
      }
      attr {
        key: "index_type"
        value {
          type: DT_INT32
        }
      }
    }
    node {
      name: "dynamic_seq2seq/encoder/bidirectional_rnn/fw/fw/DeviceWrapperZeroState/BasicLSTMCellZeroState/Const_2"
      op: "Const"
      attr {
        key: "_output_shapes"
        value {
          list {
            shape {
              dim {
                size: 1
              }
            }
          }
        }
      }
      attr {
        key: "dtype"
        value {
          type: DT_INT32
        }
      }
      attr {
        key: "value"
        value {
          tensor {
            dtype: DT_INT32
            tensor_shape {
              dim {
                size: 1
              }
            }
            int_val: 1
          }
        }
      }
    }
    node {
      name: "dynamic_seq2seq/encoder/bidirectional_rnn/fw/fw/DeviceWrapperZeroState/BasicLSTMCellZeroState/Const_3"
      op: "Const"
      attr {
        key: "_output_shapes"
        value {
          list {
            shape {
              dim {
                size: 1
              }
            }
          }
        }
      }
      attr {
        key: "dtype"
        value {
          type: DT_INT32
        }
      }
      attr {
        key: "value"
        value {
          tensor {
            dtype: DT_INT32
            tensor_shape {
              dim {
                size: 1
              }
            }
            int_val: 512
          }
        }
      }
    }
    node {
      name: "dynamic_seq2seq/encoder/bidirectional_rnn/fw/fw/DeviceWrapperZeroState/BasicLSTMCellZeroState/Const_4"
      op: "Const"
      attr {
        key: "_output_shapes"
        value {
          list {
            shape {
              dim {
                size: 1
              }
            }
          }
        }
      }
      attr {
        key: "dtype"
        value {
          type: DT_INT32
        }
      }
      attr {
        key: "value"
        value {
          tensor {
            dtype: DT_INT32
            tensor_shape {
              dim {
                size: 1
              }
            }
            int_val: 1
          }
        }
      }
    }
    node {
      name: "dynamic_seq2seq/encoder/bidirectional_rnn/fw/fw/DeviceWrapperZeroState/BasicLSTMCellZeroState/Const_5"
      op: "Const"
      attr {
        key: "_output_shapes"
        value {
          list {
            shape {
              dim {
                size: 1
              }
            }
          }
        }
      }
      attr {
        key: "dtype"
        value {
          type: DT_INT32
        }
      }
      attr {
        key: "value"
        value {
          tensor {
            dtype: DT_INT32
            tensor_shape {
              dim {
                size: 1
              }
            }
            int_val: 512
          }
        }
      }
    }
    node {
      name: "dynamic_seq2seq/encoder/bidirectional_rnn/fw/fw/DeviceWrapperZeroState/BasicLSTMCellZeroState/concat_1/axis"
      op: "Const"
      attr {
        key: "_output_shapes"
        value {
          list {
            shape {
            }
          }
        }
      }
      attr {
        key: "dtype"
        value {
          type: DT_INT32
        }
      }
      attr {
        key: "value"
        value {
          tensor {
            dtype: DT_INT32
            tensor_shape {
            }
            int_val: 0
          }
        }
      }
    }
    node {
      name: "dynamic_seq2seq/encoder/bidirectional_rnn/fw/fw/DeviceWrapperZeroState/BasicLSTMCellZeroState/concat_1"
      op: "ConcatV2"
      input: "dynamic_seq2seq/encoder/bidirectional_rnn/fw/fw/DeviceWrapperZeroState/BasicLSTMCellZeroState/Const_4"
      input: "dynamic_seq2seq/encoder/bidirectional_rnn/fw/fw/DeviceWrapperZeroState/BasicLSTMCellZeroState/Const_5"
      input: "dynamic_seq2seq/encoder/bidirectional_rnn/fw/fw/DeviceWrapperZeroState/BasicLSTMCellZeroState/concat_1/axis"
      attr {
        key: "N"
        value {
          i: 2
        }
      }
      attr {
        key: "T"
        value {
          type: DT_INT32
        }
      }
      attr {
        key: "Tidx"
        value {
          type: DT_INT32
        }
      }
      attr {
        key: "_output_shapes"
        value {
          list {
            shape {
              dim {
                size: 2
              }
            }
          }
        }
      }
    }
    node {
      name: "dynamic_seq2seq/encoder/bidirectional_rnn/fw/fw/DeviceWrapperZeroState/BasicLSTMCellZeroState/zeros_1/Const"
      op: "Const"
      attr {
        key: "_output_shapes"
        value {
          list {
            shape {
            }
          }
        }
      }
      attr {
        key: "dtype"
        value {
          type: DT_FLOAT
        }
      }
      attr {
        key: "value"
        value {
          tensor {
            dtype: DT_FLOAT
            tensor_shape {
            }
            float_val: 0.0
          }
        }
      }
    }
    node {
      name: "dynamic_seq2seq/encoder/bidirectional_rnn/fw/fw/DeviceWrapperZeroState/BasicLSTMCellZeroState/zeros_1"
      op: "Fill"
      input: "dynamic_seq2seq/encoder/bidirectional_rnn/fw/fw/DeviceWrapperZeroState/BasicLSTMCellZeroState/concat_1"
      input: "dynamic_seq2seq/encoder/bidirectional_rnn/fw/fw/DeviceWrapperZeroState/BasicLSTMCellZeroState/zeros_1/Const"
      attr {
        key: "T"
        value {
          type: DT_FLOAT
        }
      }
      attr {
        key: "_output_shapes"
        value {
          list {
            shape {
              dim {
                size: 1
              }
              dim {
                size: 512
              }
            }
          }
        }
      }
      attr {
        key: "index_type"
        value {
          type: DT_INT32
        }
      }
    }
    node {
      name: "dynamic_seq2seq/encoder/bidirectional_rnn/fw/fw/DeviceWrapperZeroState/BasicLSTMCellZeroState/Const_6"
      op: "Const"
      attr {
        key: "_output_shapes"
        value {
          list {
            shape {
              dim {
                size: 1
              }
            }
          }
        }
      }
      attr {
        key: "dtype"
        value {
          type: DT_INT32
        }
      }
      attr {
        key: "value"
        value {
          tensor {
            dtype: DT_INT32
            tensor_shape {
              dim {
                size: 1
              }
            }
            int_val: 1
          }
        }
      }
    }
    node {
      name: "dynamic_seq2seq/encoder/bidirectional_rnn/fw/fw/DeviceWrapperZeroState/BasicLSTMCellZeroState/Const_7"
      op: "Const"
      attr {
        key: "_output_shapes"
        value {
          list {
            shape {
              dim {
                size: 1
              }
            }
          }
        }
      }
      attr {
        key: "dtype"
        value {
          type: DT_INT32
        }
      }
      attr {
        key: "value"
        value {
          tensor {
            dtype: DT_INT32
            tensor_shape {
              dim {
                size: 1
              }
            }
            int_val: 512
          }
        }
      }
    }
    node {
      name: "dynamic_seq2seq/encoder/bidirectional_rnn/fw/fw/Shape"
      op: "Const"
      attr {
        key: "_output_shapes"
        value {
          list {
            shape {
              dim {
                size: 1
              }
            }
          }
        }
      }
      attr {
        key: "dtype"
        value {
          type: DT_INT32
        }
      }
      attr {
        key: "value"
        value {
          tensor {
            dtype: DT_INT32
            tensor_shape {
              dim {
                size: 1
              }
            }
            int_val: 1
          }
        }
      }
    }
    node {
      name: "dynamic_seq2seq/encoder/bidirectional_rnn/fw/fw/stack"
      op: "Const"
      attr {
        key: "_output_shapes"
        value {
          list {
            shape {
              dim {
                size: 1
              }
            }
          }
        }
      }
      attr {
        key: "dtype"
        value {
          type: DT_INT32
        }
      }
      attr {
        key: "value"
        value {
          tensor {
            dtype: DT_INT32
            tensor_shape {
              dim {
                size: 1
              }
            }
            int_val: 1
          }
        }
      }
    }
    node {
      name: "dynamic_seq2seq/encoder/bidirectional_rnn/fw/fw/Equal"
      op: "Equal"
      input: "dynamic_seq2seq/encoder/bidirectional_rnn/fw/fw/Shape"
      input: "dynamic_seq2seq/encoder/bidirectional_rnn/fw/fw/stack"
      attr {
        key: "T"
        value {
          type: DT_INT32
        }
      }
      attr {
        key: "_output_shapes"
        value {
          list {
            shape {
              dim {
                size: 1
              }
            }
          }
        }
      }
    }
    node {
      name: "dynamic_seq2seq/encoder/bidirectional_rnn/fw/fw/Const"
      op: "Const"
      attr {
        key: "_output_shapes"
        value {
          list {
            shape {
              dim {
                size: 1
              }
            }
          }
        }
      }
      attr {
        key: "dtype"
        value {
          type: DT_INT32
        }
      }
      attr {
        key: "value"
        value {
          tensor {
            dtype: DT_INT32
            tensor_shape {
              dim {
                size: 1
              }
            }
            int_val: 0
          }
        }
      }
    }
    node {
      name: "dynamic_seq2seq/encoder/bidirectional_rnn/fw/fw/All"
      op: "All"
      input: "dynamic_seq2seq/encoder/bidirectional_rnn/fw/fw/Equal"
      input: "dynamic_seq2seq/encoder/bidirectional_rnn/fw/fw/Const"
      attr {
        key: "Tidx"
        value {
          type: DT_INT32
        }
      }
      attr {
        key: "_output_shapes"
        value {
          list {
            shape {
            }
          }
        }
      }
      attr {
        key: "keep_dims"
        value {
          b: false
        }
      }
    }
    node {
      name: "dynamic_seq2seq/encoder/bidirectional_rnn/fw/fw/Assert/Const"
      op: "Const"
      attr {
        key: "_output_shapes"
        value {
          list {
            shape {
            }
          }
        }
      }
      attr {
        key: "dtype"
        value {
          type: DT_STRING
        }
      }
      attr {
        key: "value"
        value {
          tensor {
            dtype: DT_STRING
            tensor_shape {
            }
            string_val: "Expected shape for Tensor dynamic_seq2seq/encoder/bidirectional_rnn/fw/fw/sequence_length:0 is "
          }
        }
      }
    }
    node {
      name: "dynamic_seq2seq/encoder/bidirectional_rnn/fw/fw/Assert/Const_1"
      op: "Const"
      attr {
        key: "_output_shapes"
        value {
          list {
            shape {
            }
          }
        }
      }
      attr {
        key: "dtype"
        value {
          type: DT_STRING
        }
      }
      attr {
        key: "value"
        value {
          tensor {
            dtype: DT_STRING
            tensor_shape {
            }
            string_val: " but saw shape: "
          }
        }
      }
    }
    node {
      name: "dynamic_seq2seq/encoder/bidirectional_rnn/fw/fw/Assert/Assert/data_0"
      op: "Const"
      attr {
        key: "_output_shapes"
        value {
          list {
            shape {
            }
          }
        }
      }
      attr {
        key: "dtype"
        value {
          type: DT_STRING
        }
      }
      attr {
        key: "value"
        value {
          tensor {
            dtype: DT_STRING
            tensor_shape {
            }
            string_val: "Expected shape for Tensor dynamic_seq2seq/encoder/bidirectional_rnn/fw/fw/sequence_length:0 is "
          }
        }
      }
    }
    node {
      name: "dynamic_seq2seq/encoder/bidirectional_rnn/fw/fw/Assert/Assert/data_2"
      op: "Const"
      attr {
        key: "_output_shapes"
        value {
          list {
            shape {
            }
          }
        }
      }
      attr {
        key: "dtype"
        value {
          type: DT_STRING
        }
      }
      attr {
        key: "value"
        value {
          tensor {
            dtype: DT_STRING
            tensor_shape {
            }
            string_val: " but saw shape: "
          }
        }
      }
    }
    node {
      name: "dynamic_seq2seq/encoder/bidirectional_rnn/fw/fw/Assert/Assert"
      op: "Assert"
      input: "dynamic_seq2seq/encoder/bidirectional_rnn/fw/fw/All"
      input: "dynamic_seq2seq/encoder/bidirectional_rnn/fw/fw/Assert/Assert/data_0"
      input: "dynamic_seq2seq/encoder/bidirectional_rnn/fw/fw/stack"
      input: "dynamic_seq2seq/encoder/bidirectional_rnn/fw/fw/Assert/Assert/data_2"
      input: "dynamic_seq2seq/encoder/bidirectional_rnn/fw/fw/Shape"
      attr {
        key: "T"
        value {
          list {
            type: DT_STRING
            type: DT_INT32
            type: DT_STRING
            type: DT_INT32
          }
        }
      }
      attr {
        key: "summarize"
        value {
          i: 3
        }
      }
    }
    node {
      name: "dynamic_seq2seq/encoder/bidirectional_rnn/fw/fw/CheckSeqLen"
      op: "Identity"
      input: "dynamic_seq2seq/encoder/bidirectional_rnn/fw/fw/sequence_length"
      input: "^dynamic_seq2seq/encoder/bidirectional_rnn/fw/fw/Assert/Assert"
      attr {
        key: "T"
        value {
          type: DT_INT32
        }
      }
      attr {
        key: "_output_shapes"
        value {
          list {
            shape {
              dim {
                size: 1
              }
            }
          }
        }
      }
    }
    node {
      name: "dynamic_seq2seq/encoder/bidirectional_rnn/fw/fw/Shape_1"
      op: "Shape"
      input: "dynamic_seq2seq/encoder/embedding_lookup"
      attr {
        key: "T"
        value {
          type: DT_FLOAT
        }
      }
      attr {
        key: "_output_shapes"
        value {
          list {
            shape {
              dim {
                size: 3
              }
            }
          }
        }
      }
      attr {
        key: "out_type"
        value {
          type: DT_INT32
        }
      }
    }
    node {
      name: "dynamic_seq2seq/encoder/bidirectional_rnn/fw/fw/strided_slice/stack"
      op: "Const"
      attr {
        key: "_output_shapes"
        value {
          list {
            shape {
              dim {
                size: 1
              }
            }
          }
        }
      }
      attr {
        key: "dtype"
        value {
          type: DT_INT32
        }
      }
      attr {
        key: "value"
        value {
          tensor {
            dtype: DT_INT32
            tensor_shape {
              dim {
                size: 1
              }
            }
            int_val: 0
          }
        }
      }
    }
    node {
      name: "dynamic_seq2seq/encoder/bidirectional_rnn/fw/fw/strided_slice/stack_1"
      op: "Const"
      attr {
        key: "_output_shapes"
        value {
          list {
            shape {
              dim {
                size: 1
              }
            }
          }
        }
      }
      attr {
        key: "dtype"
        value {
          type: DT_INT32
        }
      }
      attr {
        key: "value"
        value {
          tensor {
            dtype: DT_INT32
            tensor_shape {
              dim {
                size: 1
              }
            }
            int_val: 1
          }
        }
      }
    }
    node {
      name: "dynamic_seq2seq/encoder/bidirectional_rnn/fw/fw/strided_slice/stack_2"
      op: "Const"
      attr {
        key: "_output_shapes"
        value {
          list {
            shape {
              dim {
                size: 1
              }
            }
          }
        }
      }
      attr {
        key: "dtype"
        value {
          type: DT_INT32
        }
      }
      attr {
        key: "value"
        value {
          tensor {
            dtype: DT_INT32
            tensor_shape {
              dim {
                size: 1
              }
            }
            int_val: 1
          }
        }
      }
    }
    node {
      name: "dynamic_seq2seq/encoder/bidirectional_rnn/fw/fw/strided_slice"
      op: "StridedSlice"
      input: "dynamic_seq2seq/encoder/bidirectional_rnn/fw/fw/Shape_1"
      input: "dynamic_seq2seq/encoder/bidirectional_rnn/fw/fw/strided_slice/stack"
      input: "dynamic_seq2seq/encoder/bidirectional_rnn/fw/fw/strided_slice/stack_1"
      input: "dynamic_seq2seq/encoder/bidirectional_rnn/fw/fw/strided_slice/stack_2"
      attr {
        key: "Index"
        value {
          type: DT_INT32
        }
      }
      attr {
        key: "T"
        value {
          type: DT_INT32
        }
      }
      attr {
        key: "_output_shapes"
        value {
          list {
            shape {
            }
          }
        }
      }
      attr {
        key: "begin_mask"
        value {
          i: 0
        }
      }
      attr {
        key: "ellipsis_mask"
        value {
          i: 0
        }
      }
      attr {
        key: "end_mask"
        value {
          i: 0
        }
      }
      attr {
        key: "new_axis_mask"
        value {
          i: 0
        }
      }
      attr {
        key: "shrink_axis_mask"
        value {
          i: 1
        }
      }
    }
    node {
      name: "dynamic_seq2seq/encoder/bidirectional_rnn/fw/fw/Const_1"
      op: "Const"
      attr {
        key: "_output_shapes"
        value {
          list {
            shape {
              dim {
                size: 1
              }
            }
          }
        }
      }
      attr {
        key: "dtype"
        value {
          type: DT_INT32
        }
      }
      attr {
        key: "value"
        value {
          tensor {
            dtype: DT_INT32
            tensor_shape {
              dim {
                size: 1
              }
            }
            int_val: 1
          }
        }
      }
    }
    node {
      name: "dynamic_seq2seq/encoder/bidirectional_rnn/fw/fw/Const_2"
      op: "Const"
      attr {
        key: "_output_shapes"
        value {
          list {
            shape {
              dim {
                size: 1
              }
            }
          }
        }
      }
      attr {
        key: "dtype"
        value {
          type: DT_INT32
        }
      }
      attr {
        key: "value"
        value {
          tensor {
            dtype: DT_INT32
            tensor_shape {
              dim {
                size: 1
              }
            }
            int_val: 512
          }
        }
      }
    }
    node {
      name: "dynamic_seq2seq/encoder/bidirectional_rnn/fw/fw/concat/axis"
      op: "Const"
      attr {
        key: "_output_shapes"
        value {
          list {
            shape {
            }
          }
        }
      }
      attr {
        key: "dtype"
        value {
          type: DT_INT32
        }
      }
      attr {
        key: "value"
        value {
          tensor {
            dtype: DT_INT32
            tensor_shape {
            }
            int_val: 0
          }
        }
      }
    }
    node {
      name: "dynamic_seq2seq/encoder/bidirectional_rnn/fw/fw/concat"
      op: "ConcatV2"
      input: "dynamic_seq2seq/encoder/bidirectional_rnn/fw/fw/Const_1"
      input: "dynamic_seq2seq/encoder/bidirectional_rnn/fw/fw/Const_2"
      input: "dynamic_seq2seq/encoder/bidirectional_rnn/fw/fw/concat/axis"
      attr {
        key: "N"
        value {
          i: 2
        }
      }
      attr {
        key: "T"
        value {
          type: DT_INT32
        }
      }
      attr {
        key: "Tidx"
        value {
          type: DT_INT32
        }
      }
      attr {
        key: "_output_shapes"
        value {
          list {
            shape {
              dim {
                size: 2
              }
            }
          }
        }
      }
    }
    node {
      name: "dynamic_seq2seq/encoder/bidirectional_rnn/fw/fw/zeros/Const"
      op: "Const"
      attr {
        key: "_output_shapes"
        value {
          list {
            shape {
            }
          }
        }
      }
      attr {
        key: "dtype"
        value {
          type: DT_FLOAT
        }
      }
      attr {
        key: "value"
        value {
          tensor {
            dtype: DT_FLOAT
            tensor_shape {
            }
            float_val: 0.0
          }
        }
      }
    }
    node {
      name: "dynamic_seq2seq/encoder/bidirectional_rnn/fw/fw/zeros"
      op: "Fill"
      input: "dynamic_seq2seq/encoder/bidirectional_rnn/fw/fw/concat"
      input: "dynamic_seq2seq/encoder/bidirectional_rnn/fw/fw/zeros/Const"
      attr {
        key: "T"
        value {
          type: DT_FLOAT
        }
      }
      attr {
        key: "_output_shapes"
        value {
          list {
            shape {
              dim {
                size: 1
              }
              dim {
                size: 512
              }
            }
          }
        }
      }
      attr {
        key: "index_type"
        value {
          type: DT_INT32
        }
      }
    }
    node {
      name: "dynamic_seq2seq/encoder/bidirectional_rnn/fw/fw/Const_3"
      op: "Const"
      attr {
        key: "_output_shapes"
        value {
          list {
            shape {
              dim {
                size: 1
              }
            }
          }
        }
      }
      attr {
        key: "dtype"
        value {
          type: DT_INT32
        }
      }
      attr {
        key: "value"
        value {
          tensor {
            dtype: DT_INT32
            tensor_shape {
              dim {
                size: 1
              }
            }
            int_val: 0
          }
        }
      }
    }
    node {
      name: "dynamic_seq2seq/encoder/bidirectional_rnn/fw/fw/Min"
      op: "Min"
      input: "dynamic_seq2seq/encoder/bidirectional_rnn/fw/fw/CheckSeqLen"
      input: "dynamic_seq2seq/encoder/bidirectional_rnn/fw/fw/Const_3"
      attr {
        key: "T"
        value {
          type: DT_INT32
        }
      }
      attr {
        key: "Tidx"
        value {
          type: DT_INT32
        }
      }
      attr {
        key: "_output_shapes"
        value {
          list {
            shape {
            }
          }
        }
      }
      attr {
        key: "keep_dims"
        value {
          b: false
        }
      }
    }
    node {
      name: "dynamic_seq2seq/encoder/bidirectional_rnn/fw/fw/Const_4"
      op: "Const"
      attr {
        key: "_output_shapes"
        value {
          list {
            shape {
              dim {
                size: 1
              }
            }
          }
        }
      }
      attr {
        key: "dtype"
        value {
          type: DT_INT32
        }
      }
      attr {
        key: "value"
        value {
          tensor {
            dtype: DT_INT32
            tensor_shape {
              dim {
                size: 1
              }
            }
            int_val: 0
          }
        }
      }
    }
    node {
      name: "dynamic_seq2seq/encoder/bidirectional_rnn/fw/fw/Max"
      op: "Max"
      input: "dynamic_seq2seq/encoder/bidirectional_rnn/fw/fw/CheckSeqLen"
      input: "dynamic_seq2seq/encoder/bidirectional_rnn/fw/fw/Const_4"
      attr {
        key: "T"
        value {
          type: DT_INT32
        }
      }
      attr {
        key: "Tidx"
        value {
          type: DT_INT32
        }
      }
      attr {
        key: "_output_shapes"
        value {
          list {
            shape {
            }
          }
        }
      }
      attr {
        key: "keep_dims"
        value {
          b: false
        }
      }
    }
    node {
      name: "dynamic_seq2seq/encoder/bidirectional_rnn/fw/fw/time"
      op: "Const"
      attr {
        key: "_output_shapes"
        value {
          list {
            shape {
            }
          }
        }
      }
      attr {
        key: "dtype"
        value {
          type: DT_INT32
        }
      }
      attr {
        key: "value"
        value {
          tensor {
            dtype: DT_INT32
            tensor_shape {
            }
            int_val: 0
          }
        }
      }
    }
    node {
      name: "dynamic_seq2seq/encoder/bidirectional_rnn/fw/fw/TensorArray"
      op: "TensorArrayV3"
      input: "dynamic_seq2seq/encoder/bidirectional_rnn/fw/fw/strided_slice"
      attr {
        key: "_output_shapes"
        value {
          list {
            shape {
              dim {
                size: 2
              }
            }
            shape {
            }
          }
        }
      }
      attr {
        key: "clear_after_read"
        value {
          b: true
        }
      }
      attr {
        key: "dtype"
        value {
          type: DT_FLOAT
        }
      }
      attr {
        key: "dynamic_size"
        value {
          b: false
        }
      }
      attr {
        key: "element_shape"
        value {
          shape {
            dim {
              size: 1
            }
            dim {
              size: 512
            }
          }
        }
      }
      attr {
        key: "identical_element_shapes"
        value {
          b: true
        }
      }
      attr {
        key: "tensor_array_name"
        value {
          s: "dynamic_seq2seq/encoder/bidirectional_rnn/fw/fw/dynamic_rnn/output_0"
        }
      }
    }
    node {
      name: "dynamic_seq2seq/encoder/bidirectional_rnn/fw/fw/TensorArray_1"
      op: "TensorArrayV3"
      input: "dynamic_seq2seq/encoder/bidirectional_rnn/fw/fw/strided_slice"
      attr {
        key: "_output_shapes"
        value {
          list {
            shape {
              dim {
                size: 2
              }
            }
            shape {
            }
          }
        }
      }
      attr {
        key: "clear_after_read"
        value {
          b: true
        }
      }
      attr {
        key: "dtype"
        value {
          type: DT_FLOAT
        }
      }
      attr {
        key: "dynamic_size"
        value {
          b: false
        }
      }
      attr {
        key: "element_shape"
        value {
          shape {
            dim {
              size: 1
            }
            dim {
              size: 512
            }
          }
        }
      }
      attr {
        key: "identical_element_shapes"
        value {
          b: true
        }
      }
      attr {
        key: "tensor_array_name"
        value {
          s: "dynamic_seq2seq/encoder/bidirectional_rnn/fw/fw/dynamic_rnn/input_0"
        }
      }
    }
    node {
      name: "dynamic_seq2seq/encoder/bidirectional_rnn/fw/fw/TensorArrayUnstack/Shape"
      op: "Shape"
      input: "dynamic_seq2seq/encoder/embedding_lookup"
      attr {
        key: "T"
        value {
          type: DT_FLOAT
        }
      }
      attr {
        key: "_output_shapes"
        value {
          list {
            shape {
              dim {
                size: 3
              }
            }
          }
        }
      }
      attr {
        key: "out_type"
        value {
          type: DT_INT32
        }
      }
    }
    node {
      name: "dynamic_seq2seq/encoder/bidirectional_rnn/fw/fw/TensorArrayUnstack/strided_slice/stack"
      op: "Const"
      attr {
        key: "_output_shapes"
        value {
          list {
            shape {
              dim {
                size: 1
              }
            }
          }
        }
      }
      attr {
        key: "dtype"
        value {
          type: DT_INT32
        }
      }
      attr {
        key: "value"
        value {
          tensor {
            dtype: DT_INT32
            tensor_shape {
              dim {
                size: 1
              }
            }
            int_val: 0
          }
        }
      }
    }
    node {
      name: "dynamic_seq2seq/encoder/bidirectional_rnn/fw/fw/TensorArrayUnstack/strided_slice/stack_1"
      op: "Const"
      attr {
        key: "_output_shapes"
        value {
          list {
            shape {
              dim {
                size: 1
              }
            }
          }
        }
      }
      attr {
        key: "dtype"
        value {
          type: DT_INT32
        }
      }
      attr {
        key: "value"
        value {
          tensor {
            dtype: DT_INT32
            tensor_shape {
              dim {
                size: 1
              }
            }
            int_val: 1
          }
        }
      }
    }
    node {
      name: "dynamic_seq2seq/encoder/bidirectional_rnn/fw/fw/TensorArrayUnstack/strided_slice/stack_2"
      op: "Const"
      attr {
        key: "_output_shapes"
        value {
          list {
            shape {
              dim {
                size: 1
              }
            }
          }
        }
      }
      attr {
        key: "dtype"
        value {
          type: DT_INT32
        }
      }
      attr {
        key: "value"
        value {
          tensor {
            dtype: DT_INT32
            tensor_shape {
              dim {
                size: 1
              }
            }
            int_val: 1
          }
        }
      }
    }
    node {
      name: "dynamic_seq2seq/encoder/bidirectional_rnn/fw/fw/TensorArrayUnstack/strided_slice"
      op: "StridedSlice"
      input: "dynamic_seq2seq/encoder/bidirectional_rnn/fw/fw/TensorArrayUnstack/Shape"
      input: "dynamic_seq2seq/encoder/bidirectional_rnn/fw/fw/TensorArrayUnstack/strided_slice/stack"
      input: "dynamic_seq2seq/encoder/bidirectional_rnn/fw/fw/TensorArrayUnstack/strided_slice/stack_1"
      input: "dynamic_seq2seq/encoder/bidirectional_rnn/fw/fw/TensorArrayUnstack/strided_slice/stack_2"
      attr {
        key: "Index"
        value {
          type: DT_INT32
        }
      }
      attr {
        key: "T"
        value {
          type: DT_INT32
        }
      }
      attr {
        key: "_output_shapes"
        value {
          list {
            shape {
            }
          }
        }
      }
      attr {
        key: "begin_mask"
        value {
          i: 0
        }
      }
      attr {
        key: "ellipsis_mask"
        value {
          i: 0
        }
      }
      attr {
        key: "end_mask"
        value {
          i: 0
        }
      }
      attr {
        key: "new_axis_mask"
        value {
          i: 0
        }
      }
      attr {
        key: "shrink_axis_mask"
        value {
          i: 1
        }
      }
    }
    node {
      name: "dynamic_seq2seq/encoder/bidirectional_rnn/fw/fw/TensorArrayUnstack/range/start"
      op: "Const"
      attr {
        key: "_output_shapes"
        value {
          list {
            shape {
            }
          }
        }
      }
      attr {
        key: "dtype"
        value {
          type: DT_INT32
        }
      }
      attr {
        key: "value"
        value {
          tensor {
            dtype: DT_INT32
            tensor_shape {
            }
            int_val: 0
          }
        }
      }
    }
    node {
      name: "dynamic_seq2seq/encoder/bidirectional_rnn/fw/fw/TensorArrayUnstack/range/delta"
      op: "Const"
      attr {
        key: "_output_shapes"
        value {
          list {
            shape {
            }
          }
        }
      }
      attr {
        key: "dtype"
        value {
          type: DT_INT32
        }
      }
      attr {
        key: "value"
        value {
          tensor {
            dtype: DT_INT32
            tensor_shape {
            }
            int_val: 1
          }
        }
      }
    }
    node {
      name: "dynamic_seq2seq/encoder/bidirectional_rnn/fw/fw/TensorArrayUnstack/range"
      op: "Range"
      input: "dynamic_seq2seq/encoder/bidirectional_rnn/fw/fw/TensorArrayUnstack/range/start"
      input: "dynamic_seq2seq/encoder/bidirectional_rnn/fw/fw/TensorArrayUnstack/strided_slice"
      input: "dynamic_seq2seq/encoder/bidirectional_rnn/fw/fw/TensorArrayUnstack/range/delta"
      attr {
        key: "Tidx"
        value {
          type: DT_INT32
        }
      }
      attr {
        key: "_output_shapes"
        value {
          list {
            shape {
              dim {
                size: -1
              }
            }
          }
        }
      }
    }
    node {
      name: "dynamic_seq2seq/encoder/bidirectional_rnn/fw/fw/TensorArrayUnstack/TensorArrayScatter/TensorArrayScatterV3"
      op: "TensorArrayScatterV3"
      input: "dynamic_seq2seq/encoder/bidirectional_rnn/fw/fw/TensorArray_1"
      input: "dynamic_seq2seq/encoder/bidirectional_rnn/fw/fw/TensorArrayUnstack/range"
      input: "dynamic_seq2seq/encoder/embedding_lookup"
      input: "dynamic_seq2seq/encoder/bidirectional_rnn/fw/fw/TensorArray_1:1"
      attr {
        key: "T"
        value {
          type: DT_FLOAT
        }
      }
      attr {
        key: "_class"
        value {
          list {
            s: "loc:@embeddings/encoder/embedding_encoder"
          }
        }
      }
      attr {
        key: "_output_shapes"
        value {
          list {
            shape {
            }
          }
        }
      }
    }
    node {
      name: "dynamic_seq2seq/encoder/bidirectional_rnn/fw/fw/Maximum/x"
      op: "Const"
      attr {
        key: "_output_shapes"
        value {
          list {
            shape {
            }
          }
        }
      }
      attr {
        key: "dtype"
        value {
          type: DT_INT32
        }
      }
      attr {
        key: "value"
        value {
          tensor {
            dtype: DT_INT32
            tensor_shape {
            }
            int_val: 1
          }
        }
      }
    }
    node {
      name: "dynamic_seq2seq/encoder/bidirectional_rnn/fw/fw/Maximum"
      op: "Maximum"
      input: "dynamic_seq2seq/encoder/bidirectional_rnn/fw/fw/Maximum/x"
      input: "dynamic_seq2seq/encoder/bidirectional_rnn/fw/fw/Max"
      attr {
        key: "T"
        value {
          type: DT_INT32
        }
      }
      attr {
        key: "_output_shapes"
        value {
          list {
            shape {
            }
          }
        }
      }
    }
    node {
      name: "dynamic_seq2seq/encoder/bidirectional_rnn/fw/fw/Minimum"
      op: "Minimum"
      input: "dynamic_seq2seq/encoder/bidirectional_rnn/fw/fw/strided_slice"
      input: "dynamic_seq2seq/encoder/bidirectional_rnn/fw/fw/Maximum"
      attr {
        key: "T"
        value {
          type: DT_INT32
        }
      }
      attr {
        key: "_output_shapes"
        value {
          list {
            shape {
            }
          }
        }
      }
    }
    node {
      name: "dynamic_seq2seq/encoder/bidirectional_rnn/fw/fw/while/iteration_counter"
      op: "Const"
      attr {
        key: "_output_shapes"
        value {
          list {
            shape {
            }
          }
        }
      }
      attr {
        key: "dtype"
        value {
          type: DT_INT32
        }
      }
      attr {
        key: "value"
        value {
          tensor {
            dtype: DT_INT32
            tensor_shape {
            }
            int_val: 0
          }
        }
      }
    }
    node {
      name: "dynamic_seq2seq/encoder/bidirectional_rnn/fw/fw/while/Enter"
      op: "Enter"
      input: "dynamic_seq2seq/encoder/bidirectional_rnn/fw/fw/while/iteration_counter"
      attr {
        key: "T"
        value {
          type: DT_INT32
        }
      }
      attr {
        key: "_output_shapes"
        value {
          list {
            shape {
            }
          }
        }
      }
      attr {
        key: "frame_name"
        value {
          s: "dynamic_seq2seq/encoder/bidirectional_rnn/fw/fw/while/while_context"
        }
      }
      attr {
        key: "is_constant"
        value {
          b: false
        }
      }
      attr {
        key: "parallel_iterations"
        value {
          i: 32
        }
      }
    }
    node {
      name: "dynamic_seq2seq/encoder/bidirectional_rnn/fw/fw/while/Enter_1"
      op: "Enter"
      input: "dynamic_seq2seq/encoder/bidirectional_rnn/fw/fw/time"
      attr {
        key: "T"
        value {
          type: DT_INT32
        }
      }
      attr {
        key: "_output_shapes"
        value {
          list {
            shape {
            }
          }
        }
      }
      attr {
        key: "frame_name"
        value {
          s: "dynamic_seq2seq/encoder/bidirectional_rnn/fw/fw/while/while_context"
        }
      }
      attr {
        key: "is_constant"
        value {
          b: false
        }
      }
      attr {
        key: "parallel_iterations"
        value {
          i: 32
        }
      }
    }
    node {
      name: "dynamic_seq2seq/encoder/bidirectional_rnn/fw/fw/while/Enter_2"
      op: "Enter"
      input: "dynamic_seq2seq/encoder/bidirectional_rnn/fw/fw/TensorArray:1"
      attr {
        key: "T"
        value {
          type: DT_FLOAT
        }
      }
      attr {
        key: "_output_shapes"
        value {
          list {
            shape {
            }
          }
        }
      }
      attr {
        key: "frame_name"
        value {
          s: "dynamic_seq2seq/encoder/bidirectional_rnn/fw/fw/while/while_context"
        }
      }
      attr {
        key: "is_constant"
        value {
          b: false
        }
      }
      attr {
        key: "parallel_iterations"
        value {
          i: 32
        }
      }
    }
    node {
      name: "dynamic_seq2seq/encoder/bidirectional_rnn/fw/fw/while/Enter_3"
      op: "Enter"
      input: "dynamic_seq2seq/encoder/bidirectional_rnn/fw/fw/DeviceWrapperZeroState/BasicLSTMCellZeroState/zeros"
      attr {
        key: "T"
        value {
          type: DT_FLOAT
        }
      }
      attr {
        key: "_output_shapes"
        value {
          list {
            shape {
              dim {
                size: 1
              }
              dim {
                size: 512
              }
            }
          }
        }
      }
      attr {
        key: "frame_name"
        value {
          s: "dynamic_seq2seq/encoder/bidirectional_rnn/fw/fw/while/while_context"
        }
      }
      attr {
        key: "is_constant"
        value {
          b: false
        }
      }
      attr {
        key: "parallel_iterations"
        value {
          i: 32
        }
      }
    }
    node {
      name: "dynamic_seq2seq/encoder/bidirectional_rnn/fw/fw/while/Enter_4"
      op: "Enter"
      input: "dynamic_seq2seq/encoder/bidirectional_rnn/fw/fw/DeviceWrapperZeroState/BasicLSTMCellZeroState/zeros_1"
      attr {
        key: "T"
        value {
          type: DT_FLOAT
        }
      }
      attr {
        key: "_output_shapes"
        value {
          list {
            shape {
              dim {
                size: 1
              }
              dim {
                size: 512
              }
            }
          }
        }
      }
      attr {
        key: "frame_name"
        value {
          s: "dynamic_seq2seq/encoder/bidirectional_rnn/fw/fw/while/while_context"
        }
      }
      attr {
        key: "is_constant"
        value {
          b: false
        }
      }
      attr {
        key: "parallel_iterations"
        value {
          i: 32
        }
      }
    }
    node {
      name: "dynamic_seq2seq/encoder/bidirectional_rnn/fw/fw/while/Merge"
      op: "Merge"
      input: "dynamic_seq2seq/encoder/bidirectional_rnn/fw/fw/while/Enter"
      input: "dynamic_seq2seq/encoder/bidirectional_rnn/fw/fw/while/NextIteration"
      attr {
        key: "N"
        value {
          i: 2
        }
      }
      attr {
        key: "T"
        value {
          type: DT_INT32
        }
      }
      attr {
        key: "_output_shapes"
        value {
          list {
            shape {
            }
            shape {
            }
          }
        }
      }
    }
    node {
      name: "dynamic_seq2seq/encoder/bidirectional_rnn/fw/fw/while/Merge_1"
      op: "Merge"
      input: "dynamic_seq2seq/encoder/bidirectional_rnn/fw/fw/while/Enter_1"
      input: "dynamic_seq2seq/encoder/bidirectional_rnn/fw/fw/while/NextIteration_1"
      attr {
        key: "N"
        value {
          i: 2
        }
      }
      attr {
        key: "T"
        value {
          type: DT_INT32
        }
      }
      attr {
        key: "_output_shapes"
        value {
          list {
            shape {
            }
            shape {
            }
          }
        }
      }
    }
    node {
      name: "dynamic_seq2seq/encoder/bidirectional_rnn/fw/fw/while/Merge_2"
      op: "Merge"
      input: "dynamic_seq2seq/encoder/bidirectional_rnn/fw/fw/while/Enter_2"
      input: "dynamic_seq2seq/encoder/bidirectional_rnn/fw/fw/while/NextIteration_2"
      attr {
        key: "N"
        value {
          i: 2
        }
      }
      attr {
        key: "T"
        value {
          type: DT_FLOAT
        }
      }
      attr {
        key: "_output_shapes"
        value {
          list {
            shape {
            }
            shape {
            }
          }
        }
      }
    }
    node {
      name: "dynamic_seq2seq/encoder/bidirectional_rnn/fw/fw/while/Merge_3"
      op: "Merge"
      input: "dynamic_seq2seq/encoder/bidirectional_rnn/fw/fw/while/Enter_3"
      input: "dynamic_seq2seq/encoder/bidirectional_rnn/fw/fw/while/NextIteration_3"
      attr {
        key: "N"
        value {
          i: 2
        }
      }
      attr {
        key: "T"
        value {
          type: DT_FLOAT
        }
      }
      attr {
        key: "_output_shapes"
        value {
          list {
            shape {
              dim {
                size: 1
              }
              dim {
                size: 512
              }
            }
            shape {
            }
          }
        }
      }
    }
    node {
      name: "dynamic_seq2seq/encoder/bidirectional_rnn/fw/fw/while/Merge_4"
      op: "Merge"
      input: "dynamic_seq2seq/encoder/bidirectional_rnn/fw/fw/while/Enter_4"
      input: "dynamic_seq2seq/encoder/bidirectional_rnn/fw/fw/while/NextIteration_4"
      attr {
        key: "N"
        value {
          i: 2
        }
      }
      attr {
        key: "T"
        value {
          type: DT_FLOAT
        }
      }
      attr {
        key: "_output_shapes"
        value {
          list {
            shape {
              dim {
                size: 1
              }
              dim {
                size: 512
              }
            }
            shape {
            }
          }
        }
      }
    }
    node {
      name: "dynamic_seq2seq/encoder/bidirectional_rnn/fw/fw/while/Less"
      op: "Less"
      input: "dynamic_seq2seq/encoder/bidirectional_rnn/fw/fw/while/Merge"
      input: "dynamic_seq2seq/encoder/bidirectional_rnn/fw/fw/while/Less/Enter"
      attr {
        key: "T"
        value {
          type: DT_INT32
        }
      }
      attr {
        key: "_output_shapes"
        value {
          list {
            shape {
            }
          }
        }
      }
    }
    node {
      name: "dynamic_seq2seq/encoder/bidirectional_rnn/fw/fw/while/Less/Enter"
      op: "Enter"
      input: "dynamic_seq2seq/encoder/bidirectional_rnn/fw/fw/strided_slice"
      attr {
        key: "T"
        value {
          type: DT_INT32
        }
      }
      attr {
        key: "_output_shapes"
        value {
          list {
            shape {
            }
          }
        }
      }
      attr {
        key: "frame_name"
        value {
          s: "dynamic_seq2seq/encoder/bidirectional_rnn/fw/fw/while/while_context"
        }
      }
      attr {
        key: "is_constant"
        value {
          b: true
        }
      }
      attr {
        key: "parallel_iterations"
        value {
          i: 32
        }
      }
    }
    node {
      name: "dynamic_seq2seq/encoder/bidirectional_rnn/fw/fw/while/Less_1"
      op: "Less"
      input: "dynamic_seq2seq/encoder/bidirectional_rnn/fw/fw/while/Merge_1"
      input: "dynamic_seq2seq/encoder/bidirectional_rnn/fw/fw/while/Less_1/Enter"
      attr {
        key: "T"
        value {
          type: DT_INT32
        }
      }
      attr {
        key: "_output_shapes"
        value {
          list {
            shape {
            }
          }
        }
      }
    }
    node {
      name: "dynamic_seq2seq/encoder/bidirectional_rnn/fw/fw/while/Less_1/Enter"
      op: "Enter"
      input: "dynamic_seq2seq/encoder/bidirectional_rnn/fw/fw/Minimum"
      attr {
        key: "T"
        value {
          type: DT_INT32
        }
      }
      attr {
        key: "_output_shapes"
        value {
          list {
            shape {
            }
          }
        }
      }
      attr {
        key: "frame_name"
        value {
          s: "dynamic_seq2seq/encoder/bidirectional_rnn/fw/fw/while/while_context"
        }
      }
      attr {
        key: "is_constant"
        value {
          b: true
        }
      }
      attr {
        key: "parallel_iterations"
        value {
          i: 32
        }
      }
    }
    node {
      name: "dynamic_seq2seq/encoder/bidirectional_rnn/fw/fw/while/LogicalAnd"
      op: "LogicalAnd"
      input: "dynamic_seq2seq/encoder/bidirectional_rnn/fw/fw/while/Less"
      input: "dynamic_seq2seq/encoder/bidirectional_rnn/fw/fw/while/Less_1"
      attr {
        key: "_output_shapes"
        value {
          list {
            shape {
            }
          }
        }
      }
    }
    node {
      name: "dynamic_seq2seq/encoder/bidirectional_rnn/fw/fw/while/LoopCond"
      op: "LoopCond"
      input: "dynamic_seq2seq/encoder/bidirectional_rnn/fw/fw/while/LogicalAnd"
      attr {
        key: "_output_shapes"
        value {
          list {
            shape {
            }
          }
        }
      }
    }
    node {
      name: "dynamic_seq2seq/encoder/bidirectional_rnn/fw/fw/while/Switch"
      op: "Switch"
      input: "dynamic_seq2seq/encoder/bidirectional_rnn/fw/fw/while/Merge"
      input: "dynamic_seq2seq/encoder/bidirectional_rnn/fw/fw/while/LoopCond"
      attr {
        key: "T"
        value {
          type: DT_INT32
        }
      }
      attr {
        key: "_class"
        value {
          list {
            s: "loc:@dynamic_seq2seq/encoder/bidirectional_rnn/fw/fw/while/Merge"
          }
        }
      }
      attr {
        key: "_output_shapes"
        value {
          list {
            shape {
            }
            shape {
            }
          }
        }
      }
    }
    node {
      name: "dynamic_seq2seq/encoder/bidirectional_rnn/fw/fw/while/Switch_1"
      op: "Switch"
      input: "dynamic_seq2seq/encoder/bidirectional_rnn/fw/fw/while/Merge_1"
      input: "dynamic_seq2seq/encoder/bidirectional_rnn/fw/fw/while/LoopCond"
      attr {
        key: "T"
        value {
          type: DT_INT32
        }
      }
      attr {
        key: "_class"
        value {
          list {
            s: "loc:@dynamic_seq2seq/encoder/bidirectional_rnn/fw/fw/while/Merge_1"
          }
        }
      }
      attr {
        key: "_output_shapes"
        value {
          list {
            shape {
            }
            shape {
            }
          }
        }
      }
    }
    node {
      name: "dynamic_seq2seq/encoder/bidirectional_rnn/fw/fw/while/Switch_2"
      op: "Switch"
      input: "dynamic_seq2seq/encoder/bidirectional_rnn/fw/fw/while/Merge_2"
      input: "dynamic_seq2seq/encoder/bidirectional_rnn/fw/fw/while/LoopCond"
      attr {
        key: "T"
        value {
          type: DT_FLOAT
        }
      }
      attr {
        key: "_class"
        value {
          list {
            s: "loc:@dynamic_seq2seq/encoder/bidirectional_rnn/fw/fw/while/Merge_2"
          }
        }
      }
      attr {
        key: "_output_shapes"
        value {
          list {
            shape {
            }
            shape {
            }
          }
        }
      }
    }
    node {
      name: "dynamic_seq2seq/encoder/bidirectional_rnn/fw/fw/while/Switch_3"
      op: "Switch"
      input: "dynamic_seq2seq/encoder/bidirectional_rnn/fw/fw/while/Merge_3"
      input: "dynamic_seq2seq/encoder/bidirectional_rnn/fw/fw/while/LoopCond"
      attr {
        key: "T"
        value {
          type: DT_FLOAT
        }
      }
      attr {
        key: "_class"
        value {
          list {
            s: "loc:@dynamic_seq2seq/encoder/bidirectional_rnn/fw/fw/while/Merge_3"
          }
        }
      }
      attr {
        key: "_output_shapes"
        value {
          list {
            shape {
              dim {
                size: 1
              }
              dim {
                size: 512
              }
            }
            shape {
              dim {
                size: 1
              }
              dim {
                size: 512
              }
            }
          }
        }
      }
    }
    node {
      name: "dynamic_seq2seq/encoder/bidirectional_rnn/fw/fw/while/Switch_4"
      op: "Switch"
      input: "dynamic_seq2seq/encoder/bidirectional_rnn/fw/fw/while/Merge_4"
      input: "dynamic_seq2seq/encoder/bidirectional_rnn/fw/fw/while/LoopCond"
      attr {
        key: "T"
        value {
          type: DT_FLOAT
        }
      }
      attr {
        key: "_class"
        value {
          list {
            s: "loc:@dynamic_seq2seq/encoder/bidirectional_rnn/fw/fw/while/Merge_4"
          }
        }
      }
      attr {
        key: "_output_shapes"
        value {
          list {
            shape {
              dim {
                size: 1
              }
              dim {
                size: 512
              }
            }
            shape {
              dim {
                size: 1
              }
              dim {
                size: 512
              }
            }
          }
        }
      }
    }
    node {
      name: "dynamic_seq2seq/encoder/bidirectional_rnn/fw/fw/while/Identity"
      op: "Identity"
      input: "dynamic_seq2seq/encoder/bidirectional_rnn/fw/fw/while/Switch:1"
      attr {
        key: "T"
        value {
          type: DT_INT32
        }
      }
      attr {
        key: "_output_shapes"
        value {
          list {
            shape {
            }
          }
        }
      }
    }
    node {
      name: "dynamic_seq2seq/encoder/bidirectional_rnn/fw/fw/while/Identity_1"
      op: "Identity"
      input: "dynamic_seq2seq/encoder/bidirectional_rnn/fw/fw/while/Switch_1:1"
      attr {
        key: "T"
        value {
          type: DT_INT32
        }
      }
      attr {
        key: "_output_shapes"
        value {
          list {
            shape {
            }
          }
        }
      }
    }
    node {
      name: "dynamic_seq2seq/encoder/bidirectional_rnn/fw/fw/while/Identity_2"
      op: "Identity"
      input: "dynamic_seq2seq/encoder/bidirectional_rnn/fw/fw/while/Switch_2:1"
      attr {
        key: "T"
        value {
          type: DT_FLOAT
        }
      }
      attr {
        key: "_output_shapes"
        value {
          list {
            shape {
            }
          }
        }
      }
    }
    node {
      name: "dynamic_seq2seq/encoder/bidirectional_rnn/fw/fw/while/Identity_3"
      op: "Identity"
      input: "dynamic_seq2seq/encoder/bidirectional_rnn/fw/fw/while/Switch_3:1"
      attr {
        key: "T"
        value {
          type: DT_FLOAT
        }
      }
      attr {
        key: "_output_shapes"
        value {
          list {
            shape {
              dim {
                size: 1
              }
              dim {
                size: 512
              }
            }
          }
        }
      }
    }
    node {
      name: "dynamic_seq2seq/encoder/bidirectional_rnn/fw/fw/while/Identity_4"
      op: "Identity"
      input: "dynamic_seq2seq/encoder/bidirectional_rnn/fw/fw/while/Switch_4:1"
      attr {
        key: "T"
        value {
          type: DT_FLOAT
        }
      }
      attr {
        key: "_output_shapes"
        value {
          list {
            shape {
              dim {
                size: 1
              }
              dim {
                size: 512
              }
            }
          }
        }
      }
    }
    node {
      name: "dynamic_seq2seq/encoder/bidirectional_rnn/fw/fw/while/add/y"
      op: "Const"
      input: "^dynamic_seq2seq/encoder/bidirectional_rnn/fw/fw/while/Identity"
      attr {
        key: "_output_shapes"
        value {
          list {
            shape {
            }
          }
        }
      }
      attr {
        key: "dtype"
        value {
          type: DT_INT32
        }
      }
      attr {
        key: "value"
        value {
          tensor {
            dtype: DT_INT32
            tensor_shape {
            }
            int_val: 1
          }
        }
      }
    }
    node {
      name: "dynamic_seq2seq/encoder/bidirectional_rnn/fw/fw/while/add"
      op: "Add"
      input: "dynamic_seq2seq/encoder/bidirectional_rnn/fw/fw/while/Identity"
      input: "dynamic_seq2seq/encoder/bidirectional_rnn/fw/fw/while/add/y"
      attr {
        key: "T"
        value {
          type: DT_INT32
        }
      }
      attr {
        key: "_output_shapes"
        value {
          list {
            shape {
            }
          }
        }
      }
    }
    node {
      name: "dynamic_seq2seq/encoder/bidirectional_rnn/fw/fw/while/TensorArrayReadV3"
      op: "TensorArrayReadV3"
      input: "dynamic_seq2seq/encoder/bidirectional_rnn/fw/fw/while/TensorArrayReadV3/Enter"
      input: "dynamic_seq2seq/encoder/bidirectional_rnn/fw/fw/while/Identity_1"
      input: "dynamic_seq2seq/encoder/bidirectional_rnn/fw/fw/while/TensorArrayReadV3/Enter_1"
      attr {
        key: "_output_shapes"
        value {
          list {
            shape {
              dim {
                size: 1
              }
              dim {
                size: 512
              }
            }
          }
        }
      }
      attr {
        key: "dtype"
        value {
          type: DT_FLOAT
        }
      }
    }
    node {
      name: "dynamic_seq2seq/encoder/bidirectional_rnn/fw/fw/while/TensorArrayReadV3/Enter"
      op: "Enter"
      input: "dynamic_seq2seq/encoder/bidirectional_rnn/fw/fw/TensorArray_1"
      attr {
        key: "T"
        value {
          type: DT_RESOURCE
        }
      }
      attr {
        key: "_output_shapes"
        value {
          list {
            shape {
              dim {
                size: 2
              }
            }
          }
        }
      }
      attr {
        key: "frame_name"
        value {
          s: "dynamic_seq2seq/encoder/bidirectional_rnn/fw/fw/while/while_context"
        }
      }
      attr {
        key: "is_constant"
        value {
          b: true
        }
      }
      attr {
        key: "parallel_iterations"
        value {
          i: 32
        }
      }
    }
    node {
      name: "dynamic_seq2seq/encoder/bidirectional_rnn/fw/fw/while/TensorArrayReadV3/Enter_1"
      op: "Enter"
      input: "dynamic_seq2seq/encoder/bidirectional_rnn/fw/fw/TensorArrayUnstack/TensorArrayScatter/TensorArrayScatterV3"
      attr {
        key: "T"
        value {
          type: DT_FLOAT
        }
      }
      attr {
        key: "_output_shapes"
        value {
          list {
            shape {
            }
          }
        }
      }
      attr {
        key: "frame_name"
        value {
          s: "dynamic_seq2seq/encoder/bidirectional_rnn/fw/fw/while/while_context"
        }
      }
      attr {
        key: "is_constant"
        value {
          b: true
        }
      }
      attr {
        key: "parallel_iterations"
        value {
          i: 32
        }
      }
    }
    node {
      name: "dynamic_seq2seq/encoder/bidirectional_rnn/fw/fw/while/GreaterEqual"
      op: "GreaterEqual"
      input: "dynamic_seq2seq/encoder/bidirectional_rnn/fw/fw/while/Identity_1"
      input: "dynamic_seq2seq/encoder/bidirectional_rnn/fw/fw/while/GreaterEqual/Enter"
      attr {
        key: "T"
        value {
          type: DT_INT32
        }
      }
      attr {
        key: "_output_shapes"
        value {
          list {
            shape {
              dim {
                size: 1
              }
            }
          }
        }
      }
    }
    node {
      name: "dynamic_seq2seq/encoder/bidirectional_rnn/fw/fw/while/GreaterEqual/Enter"
      op: "Enter"
      input: "dynamic_seq2seq/encoder/bidirectional_rnn/fw/fw/CheckSeqLen"
      attr {
        key: "T"
        value {
          type: DT_INT32
        }
      }
      attr {
        key: "_output_shapes"
        value {
          list {
            shape {
              dim {
                size: 1
              }
            }
          }
        }
      }
      attr {
        key: "frame_name"
        value {
          s: "dynamic_seq2seq/encoder/bidirectional_rnn/fw/fw/while/while_context"
        }
      }
      attr {
        key: "is_constant"
        value {
          b: true
        }
      }
      attr {
…
        value: "\nCdynamic_seq2seq/encoder/bidirectional_rnn/fw/fw/while/while_context\020 \030\001 \001*@dynamic_seq2seq/encoder/bidirectional_rnn/fw/fw/while/LoopCond:02=dynamic_seq2seq/encoder/bidirectional_rnn/fw/fw/while/Merge:0:@dynamic_seq2seq/encoder/bidirectional_rnn/fw/fw/while/Identity:0B<dynamic_seq2seq/encoder/bidirectional_rnn/fw/fw/while/Exit:0B>dynamic_seq2seq/encoder/bidirectional_rnn/fw/fw/while/Exit_1:0B>dynamic_seq2seq/encoder/bidirectional_rnn/fw/fw/while/Exit_2:0B>dynamic_seq2seq/encoder/bidirectional_rnn/fw/fw/while/Exit_3:0B>dynamic_seq2seq/encoder/bidirectional_rnn/fw/fw/while/Exit_4:0J\277>\nHdynamic_seq2seq/encoder/bidirectional_rnn/fw/basic_lstm_cell/bias/read:0\nJdynamic_seq2seq/encoder/bidirectional_rnn/fw/basic_lstm_cell/kernel/read:0\n=dynamic_seq2seq/encoder/bidirectional_rnn/fw/fw/CheckSeqLen:0\n9dynamic_seq2seq/encoder/bidirectional_rnn/fw/fw/Minimum:0\n=dynamic_seq2seq/encoder/bidirectional_rnn/fw/fw/TensorArray:0\nldynamic_seq2seq/encoder/bidirectional_rnn/fw/fw/TensorArrayUnstack/TensorArrayScatter/TensorArrayScatterV3:0\n?dynamic_seq2seq/encoder/bidirectional_rnn/fw/fw/TensorArray_1:0\n?dynamic_seq2seq/encoder/bidirectional_rnn/fw/fw/strided_slice:0\n=dynamic_seq2seq/encoder/bidirectional_rnn/fw/fw/while/Enter:0\n?dynamic_seq2seq/encoder/bidirectional_rnn/fw/fw/while/Enter_1:0\n?dynamic_seq2seq/encoder/bidirectional_rnn/fw/fw/while/Enter_2:0\n?dynamic_seq2seq/encoder/bidirectional_rnn/fw/fw/while/Enter_3:0\n?dynamic_seq2seq/encoder/bidirectional_rnn/fw/fw/while/Enter_4:0\n<dynamic_seq2seq/encoder/bidirectional_rnn/fw/fw/while/Exit:0\n>dynamic_seq2seq/encoder/bidirectional_rnn/fw/fw/while/Exit_1:0\n>dynamic_seq2seq/encoder/bidirectional_rnn/fw/fw/while/Exit_2:0\n>dynamic_seq2seq/encoder/bidirectional_rnn/fw/fw/while/Exit_3:0\n>dynamic_seq2seq/encoder/bidirectional_rnn/fw/fw/while/Exit_4:0\nJdynamic_seq2seq/encoder/bidirectional_rnn/fw/fw/while/GreaterEqual/Enter:0\nDdynamic_seq2seq/encoder/bidirectional_rnn/fw/fw/while/GreaterEqual:0\n@dynamic_seq2seq/encoder/bidirectional_rnn/fw/fw/while/Identity:0\nBdynamic_seq2seq/encoder/bidirectional_rnn/fw/fw/while/Identity_1:0\nBdynamic_seq2seq/encoder/bidirectional_rnn/fw/fw/while/Identity_2:0\nBdynamic_seq2seq/encoder/bidirectional_rnn/fw/fw/while/Identity_3:0\nBdynamic_seq2seq/encoder/bidirectional_rnn/fw/fw/while/Identity_4:0\nBdynamic_seq2seq/encoder/bidirectional_rnn/fw/fw/while/Less/Enter:0\n<dynamic_seq2seq/encoder/bidirectional_rnn/fw/fw/while/Less:0\nDdynamic_seq2seq/encoder/bidirectional_rnn/fw/fw/while/Less_1/Enter:0\n>dynamic_seq2seq/encoder/bidirectional_rnn/fw/fw/while/Less_1:0\nBdynamic_seq2seq/encoder/bidirectional_rnn/fw/fw/while/LogicalAnd:0\n@dynamic_seq2seq/encoder/bidirectional_rnn/fw/fw/while/LoopCond:0\n=dynamic_seq2seq/encoder/bidirectional_rnn/fw/fw/while/Merge:0\n=dynamic_seq2seq/encoder/bidirectional_rnn/fw/fw/while/Merge:1\n?dynamic_seq2seq/encoder/bidirectional_rnn/fw/fw/while/Merge_1:0\n?dynamic_seq2seq/encoder/bidirectional_rnn/fw/fw/while/Merge_1:1\n?dynamic_seq2seq/encoder/bidirectional_rnn/fw/fw/while/Merge_2:0\n?dynamic_seq2seq/encoder/bidirectional_rnn/fw/fw/while/Merge_2:1\n?dynamic_seq2seq/encoder/bidirectional_rnn/fw/fw/while/Merge_3:0\n?dynamic_seq2seq/encoder/bidirectional_rnn/fw/fw/while/Merge_3:1\n?dynamic_seq2seq/encoder/bidirectional_rnn/fw/fw/while/Merge_4:0\n?dynamic_seq2seq/encoder/bidirectional_rnn/fw/fw/while/Merge_4:1\nEdynamic_seq2seq/encoder/bidirectional_rnn/fw/fw/while/NextIteration:0\nGdynamic_seq2seq/encoder/bidirectional_rnn/fw/fw/while/NextIteration_1:0\nGdynamic_seq2seq/encoder/bidirectional_rnn/fw/fw/while/NextIteration_2:0\nGdynamic_seq2seq/encoder/bidirectional_rnn/fw/fw/while/NextIteration_3:0\nGdynamic_seq2seq/encoder/bidirectional_rnn/fw/fw/while/NextIteration_4:0\nDdynamic_seq2seq/encoder/bidirectional_rnn/fw/fw/while/Select/Enter:0\n>dynamic_seq2seq/encoder/bidirectional_rnn/fw/fw/while/Select:0\n@dynamic_seq2seq/encoder/bidirectional_rnn/fw/fw/while/Select_1:0\n@dynamic_seq2seq/encoder/bidirectional_rnn/fw/fw/while/Select_2:0\n>dynamic_seq2seq/encoder/bidirectional_rnn/fw/fw/while/Switch:0\n>dynamic_seq2seq/encoder/bidirectional_rnn/fw/fw/while/Switch:1\n@dynamic_seq2seq/encoder/bidirectional_rnn/fw/fw/while/Switch_1:0\n@dynamic_seq2seq/encoder/bidirectional_rnn/fw/fw/while/Switch_1:1\n@dynamic_seq2seq/encoder/bidirectional_rnn/fw/fw/while/Switch_2:0\n@dynamic_seq2seq/encoder/bidirectional_rnn/fw/fw/while/Switch_2:1\n@dynamic_seq2seq/encoder/bidirectional_rnn/fw/fw/while/Switch_3:0\n@dynamic_seq2seq/encoder/bidirectional_rnn/fw/fw/while/Switch_3:1\n@dynamic_seq2seq/encoder/bidirectional_rnn/fw/fw/while/Switch_4:0\n@dynamic_seq2seq/encoder/bidirectional_rnn/fw/fw/while/Switch_4:1\nOdynamic_seq2seq/encoder/bidirectional_rnn/fw/fw/while/TensorArrayReadV3/Enter:0\nQdynamic_seq2seq/encoder/bidirectional_rnn/fw/fw/while/TensorArrayReadV3/Enter_1:0\nIdynamic_seq2seq/encoder/bidirectional_rnn/fw/fw/while/TensorArrayReadV3:0\nadynamic_seq2seq/encoder/bidirectional_rnn/fw/fw/while/TensorArrayWrite/TensorArrayWriteV3/Enter:0\n[dynamic_seq2seq/encoder/bidirectional_rnn/fw/fw/while/TensorArrayWrite/TensorArrayWriteV3:0\n=dynamic_seq2seq/encoder/bidirectional_rnn/fw/fw/while/add/y:0\n;dynamic_seq2seq/encoder/bidirectional_rnn/fw/fw/while/add:0\n?dynamic_seq2seq/encoder/bidirectional_rnn/fw/fw/while/add_1/y:0\n=dynamic_seq2seq/encoder/bidirectional_rnn/fw/fw/while/add_1:0\nKdynamic_seq2seq/encoder/bidirectional_rnn/fw/fw/while/basic_lstm_cell/Add:0\nMdynamic_seq2seq/encoder/bidirectional_rnn/fw/fw/while/basic_lstm_cell/Add_1:0\nUdynamic_seq2seq/encoder/bidirectional_rnn/fw/fw/while/basic_lstm_cell/BiasAdd/Enter:0\nOdynamic_seq2seq/encoder/bidirectional_rnn/fw/fw/while/basic_lstm_cell/BiasAdd:0\nMdynamic_seq2seq/encoder/bidirectional_rnn/fw/fw/while/basic_lstm_cell/Const:0\nOdynamic_seq2seq/encoder/bidirectional_rnn/fw/fw/while/basic_lstm_cell/Const_1:0\nOdynamic_seq2seq/encoder/bidirectional_rnn/fw/fw/while/basic_lstm_cell/Const_2:0\nTdynamic_seq2seq/encoder/bidirectional_rnn/fw/fw/while/basic_lstm_cell/MatMul/Enter:0\nNdynamic_seq2seq/encoder/bidirectional_rnn/fw/fw/while/basic_lstm_cell/MatMul:0\nKdynamic_seq2seq/encoder/bidirectional_rnn/fw/fw/while/basic_lstm_cell/Mul:0\nMdynamic_seq2seq/encoder/bidirectional_rnn/fw/fw/while/basic_lstm_cell/Mul_1:0\nMdynamic_seq2seq/encoder/bidirectional_rnn/fw/fw/while/basic_lstm_cell/Mul_2:0\nOdynamic_seq2seq/encoder/bidirectional_rnn/fw/fw/while/basic_lstm_cell/Sigmoid:0\nQdynamic_seq2seq/encoder/bidirectional_rnn/fw/fw/while/basic_lstm_cell/Sigmoid_1:0\nQdynamic_seq2seq/encoder/bidirectional_rnn/fw/fw/while/basic_lstm_cell/Sigmoid_2:0\nLdynamic_seq2seq/encoder/bidirectional_rnn/fw/fw/while/basic_lstm_cell/Tanh:0\nNdynamic_seq2seq/encoder/bidirectional_rnn/fw/fw/while/basic_lstm_cell/Tanh_1:0\nSdynamic_seq2seq/encoder/bidirectional_rnn/fw/fw/while/basic_lstm_cell/concat/axis:0\nNdynamic_seq2seq/encoder/bidirectional_rnn/fw/fw/while/basic_lstm_cell/concat:0\nMdynamic_seq2seq/encoder/bidirectional_rnn/fw/fw/while/basic_lstm_cell/split:0\nMdynamic_seq2seq/encoder/bidirectional_rnn/fw/fw/while/basic_lstm_cell/split:1\nMdynamic_seq2seq/encoder/bidirectional_rnn/fw/fw/while/basic_lstm_cell/split:2\nMdynamic_seq2seq/encoder/bidirectional_rnn/fw/fw/while/basic_lstm_cell/split:3\n7dynamic_seq2seq/encoder/bidirectional_rnn/fw/fw/zeros:0\022\201\001\n9dynamic_seq2seq/encoder/bidirectional_rnn/fw/fw/Minimum:0\022Ddynamic_seq2seq/encoder/bidirectional_rnn/fw/fw/while/Less_1/Enter:0\022\301\001\nldynamic_seq2seq/encoder/bidirectional_rnn/fw/fw/TensorArrayUnstack/TensorArrayScatter/TensorArrayScatterV3:0\022Qdynamic_seq2seq/encoder/bidirectional_rnn/fw/fw/while/TensorArrayReadV3/Enter_1:0\022\222\001\n?dynamic_seq2seq/encoder/bidirectional_rnn/fw/fw/TensorArray_1:0\022Odynamic_seq2seq/encoder/bidirectional_rnn/fw/fw/while/TensorArrayReadV3/Enter:0\022\242\001\nJdynamic_seq2seq/encoder/bidirectional_rnn/fw/basic_lstm_cell/kernel/read:0\022Tdynamic_seq2seq/encoder/bidirectional_rnn/fw/fw/while/basic_lstm_cell/MatMul/Enter:0\022\241\001\nHdynamic_seq2seq/encoder/bidirectional_rnn/fw/basic_lstm_cell/bias/read:0\022Udynamic_seq2seq/encoder/bidirectional_rnn/fw/fw/while/basic_lstm_cell/BiasAdd/Enter:0\022\205\001\n?dynamic_seq2seq/encoder/bidirectional_rnn/fw/fw/strided_slice:0\022Bdynamic_seq2seq/encoder/bidirectional_rnn/fw/fw/while/Less/Enter:0\022\213\001\n=dynamic_seq2seq/encoder/bidirectional_rnn/fw/fw/CheckSeqLen:0\022Jdynamic_seq2seq/encoder/bidirectional_rnn/fw/fw/while/GreaterEqual/Enter:0\022\177\n7dynamic_seq2seq/encoder/bidirectional_rnn/fw/fw/zeros:0\022Ddynamic_seq2seq/encoder/bidirectional_rnn/fw/fw/while/Select/Enter:0\022\242\001\n=dynamic_seq2seq/encoder/bidirectional_rnn/fw/fw/TensorArray:0\022adynamic_seq2seq/encoder/bidirectional_rnn/fw/fw/while/TensorArrayWrite/TensorArrayWriteV3/Enter:0R=dynamic_seq2seq/encoder/bidirectional_rnn/fw/fw/while/Enter:0R?dynamic_seq2seq/encoder/bidirectional_rnn/fw/fw/while/Enter_1:0R?dynamic_seq2seq/encoder/bidirectional_rnn/fw/fw/while/Enter_2:0R?dynamic_seq2seq/encoder/bidirectional_rnn/fw/fw/while/Enter_3:0R?dynamic_seq2seq/encoder/bidirectional_rnn/fw/fw/while/Enter_4:0Z?dynamic_seq2seq/encoder/bidirectional_rnn/fw/fw/strided_slice:0"
        value: "\nCdynamic_seq2seq/encoder/bidirectional_rnn/bw/bw/while/while_context\020 \030\001 \001*@dynamic_seq2seq/encoder/bidirectional_rnn/bw/bw/while/LoopCond:02=dynamic_seq2seq/encoder/bidirectional_rnn/bw/bw/while/Merge:0:@dynamic_seq2seq/encoder/bidirectional_rnn/bw/bw/while/Identity:0B<dynamic_seq2seq/encoder/bidirectional_rnn/bw/bw/while/Exit:0B>dynamic_seq2seq/encoder/bidirectional_rnn/bw/bw/while/Exit_1:0B>dynamic_seq2seq/encoder/bidirectional_rnn/bw/bw/while/Exit_2:0B>dynamic_seq2seq/encoder/bidirectional_rnn/bw/bw/while/Exit_3:0B>dynamic_seq2seq/encoder/bidirectional_rnn/bw/bw/while/Exit_4:0J\277>\nHdynamic_seq2seq/encoder/bidirectional_rnn/bw/basic_lstm_cell/bias/read:0\nJdynamic_seq2seq/encoder/bidirectional_rnn/bw/basic_lstm_cell/kernel/read:0\n=dynamic_seq2seq/encoder/bidirectional_rnn/bw/bw/CheckSeqLen:0\n9dynamic_seq2seq/encoder/bidirectional_rnn/bw/bw/Minimum:0\n=dynamic_seq2seq/encoder/bidirectional_rnn/bw/bw/TensorArray:0\nldynamic_seq2seq/encoder/bidirectional_rnn/bw/bw/TensorArrayUnstack/TensorArrayScatter/TensorArrayScatterV3:0\n?dynamic_seq2seq/encoder/bidirectional_rnn/bw/bw/TensorArray_1:0\n?dynamic_seq2seq/encoder/bidirectional_rnn/bw/bw/strided_slice:0\n=dynamic_seq2seq/encoder/bidirectional_rnn/bw/bw/while/Enter:0\n?dynamic_seq2seq/encoder/bidirectional_rnn/bw/bw/while/Enter_1:0\n?dynamic_seq2seq/encoder/bidirectional_rnn/bw/bw/while/Enter_2:0\n?dynamic_seq2seq/encoder/bidirectional_rnn/bw/bw/while/Enter_3:0\n?dynamic_seq2seq/encoder/bidirectional_rnn/bw/bw/while/Enter_4:0\n<dynamic_seq2seq/encoder/bidirectional_rnn/bw/bw/while/Exit:0\n>dynamic_seq2seq/encoder/bidirectional_rnn/bw/bw/while/Exit_1:0\n>dynamic_seq2seq/encoder/bidirectional_rnn/bw/bw/while/Exit_2:0\n>dynamic_seq2seq/encoder/bidirectional_rnn/bw/bw/while/Exit_3:0\n>dynamic_seq2seq/encoder/bidirectional_rnn/bw/bw/while/Exit_4:0\nJdynamic_seq2seq/encoder/bidirectional_rnn/bw/bw/while/GreaterEqual/Enter:0\nDdynamic_seq2seq/encoder/bidirectional_rnn/bw/bw/while/GreaterEqual:0\n@dynamic_seq2seq/encoder/bidirectional_rnn/bw/bw/while/Identity:0\nBdynamic_seq2seq/encoder/bidirectional_rnn/bw/bw/while/Identity_1:0\nBdynamic_seq2seq/encoder/bidirectional_rnn/bw/bw/while/Identity_2:0\nBdynamic_seq2seq/encoder/bidirectional_rnn/bw/bw/while/Identity_3:0\nBdynamic_seq2seq/encoder/bidirectional_rnn/bw/bw/while/Identity_4:0\nBdynamic_seq2seq/encoder/bidirectional_rnn/bw/bw/while/Less/Enter:0\n<dynamic_seq2seq/encoder/bidirectional_rnn/bw/bw/while/Less:0\nDdynamic_seq2seq/encoder/bidirectional_rnn/bw/bw/while/Less_1/Enter:0\n>dynamic_seq2seq/encoder/bidirectional_rnn/bw/bw/while/Less_1:0\nBdynamic_seq2seq/encoder/bidirectional_rnn/bw/bw/while/LogicalAnd:0\n@dynamic_seq2seq/encoder/bidirectional_rnn/bw/bw/while/LoopCond:0\n=dynamic_seq2seq/encoder/bidirectional_rnn/bw/bw/while/Merge:0\n=dynamic_seq2seq/encoder/bidirectional_rnn/bw/bw/while/Merge:1\n?dynamic_seq2seq/encoder/bidirectional_rnn/bw/bw/while/Merge_1:0\n?dynamic_seq2seq/encoder/bidirectional_rnn/bw/bw/while/Merge_1:1\n?dynamic_seq2seq/encoder/bidirectional_rnn/bw/bw/while/Merge_2:0\n?dynamic_seq2seq/encoder/bidirectional_rnn/bw/bw/while/Merge_2:1\n?dynamic_seq2seq/encoder/bidirectional_rnn/bw/bw/while/Merge_3:0\n?dynamic_seq2seq/encoder/bidirectional_rnn/bw/bw/while/Merge_3:1\n?dynamic_seq2seq/encoder/bidirectional_rnn/bw/bw/while/Merge_4:0\n?dynamic_seq2seq/encoder/bidirectional_rnn/bw/bw/while/Merge_4:1\nEdynamic_seq2seq/encoder/bidirectional_rnn/bw/bw/while/NextIteration:0\nGdynamic_seq2seq/encoder/bidirectional_rnn/bw/bw/while/NextIteration_1:0\nGdynamic_seq2seq/encoder/bidirectional_rnn/bw/bw/while/NextIteration_2:0\nGdynamic_seq2seq/encoder/bidirectional_rnn/bw/bw/while/NextIteration_3:0\nGdynamic_seq2seq/encoder/bidirectional_rnn/bw/bw/while/NextIteration_4:0\nDdynamic_seq2seq/encoder/bidirectional_rnn/bw/bw/while/Select/Enter:0\n>dynamic_seq2seq/encoder/bidirectional_rnn/bw/bw/while/Select:0\n@dynamic_seq2seq/encoder/bidirectional_rnn/bw/bw/while/Select_1:0\n@dynamic_seq2seq/encoder/bidirectional_rnn/bw/bw/while/Select_2:0\n>dynamic_seq2seq/encoder/bidirectional_rnn/bw/bw/while/Switch:0\n>dynamic_seq2seq/encoder/bidirectional_rnn/bw/bw/while/Switch:1\n@dynamic_seq2seq/encoder/bidirectional_rnn/bw/bw/while/Switch_1:0\n@dynamic_seq2seq/encoder/bidirectional_rnn/bw/bw/while/Switch_1:1\n@dynamic_seq2seq/encoder/bidirectional_rnn/bw/bw/while/Switch_2:0\n@dynamic_seq2seq/encoder/bidirectional_rnn/bw/bw/while/Switch_2:1\n@dynamic_seq2seq/encoder/bidirectional_rnn/bw/bw/while/Switch_3:0\n@dynamic_seq2seq/encoder/bidirectional_rnn/bw/bw/while/Switch_3:1\n@dynamic_seq2seq/encoder/bidirectional_rnn/bw/bw/while/Switch_4:0\n@dynamic_seq2seq/encoder/bidirectional_rnn/bw/bw/while/Switch_4:1\nOdynamic_seq2seq/encoder/bidirectional_rnn/bw/bw/while/TensorArrayReadV3/Enter:0\nQdynamic_seq2seq/encoder/bidirectional_rnn/bw/bw/while/TensorArrayReadV3/Enter_1:0\nIdynamic_seq2seq/encoder/bidirectional_rnn/bw/bw/while/TensorArrayReadV3:0\nadynamic_seq2seq/encoder/bidirectional_rnn/bw/bw/while/TensorArrayWrite/TensorArrayWriteV3/Enter:0\n[dynamic_seq2seq/encoder/bidirectional_rnn/bw/bw/while/TensorArrayWrite/TensorArrayWriteV3:0\n=dynamic_seq2seq/encoder/bidirectional_rnn/bw/bw/while/add/y:0\n;dynamic_seq2seq/encoder/bidirectional_rnn/bw/bw/while/add:0\n?dynamic_seq2seq/encoder/bidirectional_rnn/bw/bw/while/add_1/y:0\n=dynamic_seq2seq/encoder/bidirectional_rnn/bw/bw/while/add_1:0\nKdynamic_seq2seq/encoder/bidirectional_rnn/bw/bw/while/basic_lstm_cell/Add:0\nMdynamic_seq2seq/encoder/bidirectional_rnn/bw/bw/while/basic_lstm_cell/Add_1:0\nUdynamic_seq2seq/encoder/bidirectional_rnn/bw/bw/while/basic_lstm_cell/BiasAdd/Enter:0\nOdynamic_seq2seq/encoder/bidirectional_rnn/bw/bw/while/basic_lstm_cell/BiasAdd:0\nMdynamic_seq2seq/encoder/bidirectional_rnn/bw/bw/while/basic_lstm_cell/Const:0\nOdynamic_seq2seq/encoder/bidirectional_rnn/bw/bw/while/basic_lstm_cell/Const_1:0\nOdynamic_seq2seq/encoder/bidirectional_rnn/bw/bw/while/basic_lstm_cell/Const_2:0\nTdynamic_seq2seq/encoder/bidirectional_rnn/bw/bw/while/basic_lstm_cell/MatMul/Enter:0\nNdynamic_seq2seq/encoder/bidirectional_rnn/bw/bw/while/basic_lstm_cell/MatMul:0\nKdynamic_seq2seq/encoder/bidirectional_rnn/bw/bw/while/basic_lstm_cell/Mul:0\nMdynamic_seq2seq/encoder/bidirectional_rnn/bw/bw/while/basic_lstm_cell/Mul_1:0\nMdynamic_seq2seq/encoder/bidirectional_rnn/bw/bw/while/basic_lstm_cell/Mul_2:0\nOdynamic_seq2seq/encoder/bidirectional_rnn/bw/bw/while/basic_lstm_cell/Sigmoid:0\nQdynamic_seq2seq/encoder/bidirectional_rnn/bw/bw/while/basic_lstm_cell/Sigmoid_1:0\nQdynamic_seq2seq/encoder/bidirectional_rnn/bw/bw/while/basic_lstm_cell/Sigmoid_2:0\nLdynamic_seq2seq/encoder/bidirectional_rnn/bw/bw/while/basic_lstm_cell/Tanh:0\nNdynamic_seq2seq/encoder/bidirectional_rnn/bw/bw/while/basic_lstm_cell/Tanh_1:0\nSdynamic_seq2seq/encoder/bidirectional_rnn/bw/bw/while/basic_lstm_cell/concat/axis:0\nNdynamic_seq2seq/encoder/bidirectional_rnn/bw/bw/while/basic_lstm_cell/concat:0\nMdynamic_seq2seq/encoder/bidirectional_rnn/bw/bw/while/basic_lstm_cell/split:0\nMdynamic_seq2seq/encoder/bidirectional_rnn/bw/bw/while/basic_lstm_cell/split:1\nMdynamic_seq2seq/encoder/bidirectional_rnn/bw/bw/while/basic_lstm_cell/split:2\nMdynamic_seq2seq/encoder/bidirectional_rnn/bw/bw/while/basic_lstm_cell/split:3\n7dynamic_seq2seq/encoder/bidirectional_rnn/bw/bw/zeros:0\022\201\001\n9dynamic_seq2seq/encoder/bidirectional_rnn/bw/bw/Minimum:0\022Ddynamic_seq2seq/encoder/bidirectional_rnn/bw/bw/while/Less_1/Enter:0\022\222\001\n?dynamic_seq2seq/encoder/bidirectional_rnn/bw/bw/TensorArray_1:0\022Odynamic_seq2seq/encoder/bidirectional_rnn/bw/bw/while/TensorArrayReadV3/Enter:0\022\301\001\nldynamic_seq2seq/encoder/bidirectional_rnn/bw/bw/TensorArrayUnstack/TensorArrayScatter/TensorArrayScatterV3:0\022Qdynamic_seq2seq/encoder/bidirectional_rnn/bw/bw/while/TensorArrayReadV3/Enter_1:0\022\213\001\n=dynamic_seq2seq/encoder/bidirectional_rnn/bw/bw/CheckSeqLen:0\022Jdynamic_seq2seq/encoder/bidirectional_rnn/bw/bw/while/GreaterEqual/Enter:0\022\205\001\n?dynamic_seq2seq/encoder/bidirectional_rnn/bw/bw/strided_slice:0\022Bdynamic_seq2seq/encoder/bidirectional_rnn/bw/bw/while/Less/Enter:0\022\242\001\nJdynamic_seq2seq/encoder/bidirectional_rnn/bw/basic_lstm_cell/kernel/read:0\022Tdynamic_seq2seq/encoder/bidirectional_rnn/bw/bw/while/basic_lstm_cell/MatMul/Enter:0\022\241\001\nHdynamic_seq2seq/encoder/bidirectional_rnn/bw/basic_lstm_cell/bias/read:0\022Udynamic_seq2seq/encoder/bidirectional_rnn/bw/bw/while/basic_lstm_cell/BiasAdd/Enter:0\022\177\n7dynamic_seq2seq/encoder/bidirectional_rnn/bw/bw/zeros:0\022Ddynamic_seq2seq/encoder/bidirectional_rnn/bw/bw/while/Select/Enter:0\022\242\001\n=dynamic_seq2seq/encoder/bidirectional_rnn/bw/bw/TensorArray:0\022adynamic_seq2seq/encoder/bidirectional_rnn/bw/bw/while/TensorArrayWrite/TensorArrayWriteV3/Enter:0R=dynamic_seq2seq/encoder/bidirectional_rnn/bw/bw/while/Enter:0R?dynamic_seq2seq/encoder/bidirectional_rnn/bw/bw/while/Enter_1:0R?dynamic_seq2seq/encoder/bidirectional_rnn/bw/bw/while/Enter_2:0R?dynamic_seq2seq/encoder/bidirectional_rnn/bw/bw/while/Enter_3:0R?dynamic_seq2seq/encoder/bidirectional_rnn/bw/bw/while/Enter_4:0Z?dynamic_seq2seq/encoder/bidirectional_rnn/bw/bw/strided_slice:0"
        value: "\n3dynamic_seq2seq/decoder/decoder/while/while_context\020 \030\001 \001*0dynamic_seq2seq/decoder/decoder/while/LoopCond:02-dynamic_seq2seq/decoder/decoder/while/Merge:0:0dynamic_seq2seq/decoder/decoder/while/Identity:0B,dynamic_seq2seq/decoder/decoder/while/Exit:0B.dynamic_seq2seq/decoder/decoder/while/Exit_1:0B.dynamic_seq2seq/decoder/decoder/while/Exit_2:0B.dynamic_seq2seq/decoder/decoder/while/Exit_3:0B.dynamic_seq2seq/decoder/decoder/while/Exit_4:0B.dynamic_seq2seq/decoder/decoder/while/Exit_5:0B.dynamic_seq2seq/decoder/decoder/while/Exit_6:0B.dynamic_seq2seq/decoder/decoder/while/Exit_7:0B.dynamic_seq2seq/decoder/decoder/while/Exit_8:0B.dynamic_seq2seq/decoder/decoder/while/Exit_9:0B/dynamic_seq2seq/decoder/decoder/while/Exit_10:0B/dynamic_seq2seq/decoder/decoder/while/Exit_11:0B/dynamic_seq2seq/decoder/decoder/while/Exit_12:0B/dynamic_seq2seq/decoder/decoder/while/Exit_13:0B/dynamic_seq2seq/decoder/decoder/while/Exit_14:0B/dynamic_seq2seq/decoder/decoder/while/Exit_15:0J\235\311\001\n\016ExpandDims_1:0\n\030dynamic_seq2seq/Cast_1:0\n\031dynamic_seq2seq/ToInt32:0\nVdynamic_seq2seq/decoder/DeviceWrapperZeroState/AttentionWrapperZeroState/TensorArray:0\n?dynamic_seq2seq/decoder/LuongAttention/memory_layer/Tensordot:0\n,dynamic_seq2seq/decoder/LuongAttention/mul:0\n?dynamic_seq2seq/decoder/attention/attention_layer/kernel/read:0\nDdynamic_seq2seq/decoder/attention/luong_attention/attention_g/read:0\nSdynamic_seq2seq/decoder/attention/multi_rnn_cell/cell_0/basic_lstm_cell/bias/read:0\nUdynamic_seq2seq/decoder/attention/multi_rnn_cell/cell_0/basic_lstm_cell/kernel/read:0\nSdynamic_seq2seq/decoder/attention/multi_rnn_cell/cell_1/basic_lstm_cell/bias/read:0\nUdynamic_seq2seq/decoder/attention/multi_rnn_cell/cell_1/basic_lstm_cell/kernel/read:0\n-dynamic_seq2seq/decoder/decoder/TensorArray:0\n/dynamic_seq2seq/decoder/decoder/TensorArray_1:0\n+dynamic_seq2seq/decoder/decoder/while/All:0\n<dynamic_seq2seq/decoder/decoder/while/BasicDecoderStep/All:0\nIdynamic_seq2seq/decoder/decoder/while/BasicDecoderStep/ArgMax/dimension:0\n?dynamic_seq2seq/decoder/decoder/while/BasicDecoderStep/ArgMax:0\n>dynamic_seq2seq/decoder/decoder/while/BasicDecoderStep/Const:0\nDdynamic_seq2seq/decoder/decoder/while/BasicDecoderStep/Equal/Enter:0\n>dynamic_seq2seq/decoder/decoder/while/BasicDecoderStep/Equal:0\nCdynamic_seq2seq/decoder/decoder/while/BasicDecoderStep/cond/Enter:0\nCdynamic_seq2seq/decoder/decoder/while/BasicDecoderStep/cond/Merge:0\nCdynamic_seq2seq/decoder/decoder/while/BasicDecoderStep/cond/Merge:1\nDdynamic_seq2seq/decoder/decoder/while/BasicDecoderStep/cond/Switch:0\nDdynamic_seq2seq/decoder/decoder/while/BasicDecoderStep/cond/Switch:1\nFdynamic_seq2seq/decoder/decoder/while/BasicDecoderStep/cond/Switch_1:0\nFdynamic_seq2seq/decoder/decoder/while/BasicDecoderStep/cond/Switch_1:1\nTdynamic_seq2seq/decoder/decoder/while/BasicDecoderStep/cond/embedding_lookup/Enter:0\nSdynamic_seq2seq/decoder/decoder/while/BasicDecoderStep/cond/embedding_lookup/axis:0\nNdynamic_seq2seq/decoder/decoder/while/BasicDecoderStep/cond/embedding_lookup:0\nEdynamic_seq2seq/decoder/decoder/while/BasicDecoderStep/cond/pred_id:0\nFdynamic_seq2seq/decoder/decoder/while/BasicDecoderStep/cond/switch_f:0\nFdynamic_seq2seq/decoder/decoder/while/BasicDecoderStep/cond/switch_t:0\nYdynamic_seq2seq/decoder/decoder/while/BasicDecoderStep/decoder/attention/ExpandDims/dim:0\nUdynamic_seq2seq/decoder/decoder/while/BasicDecoderStep/decoder/attention/ExpandDims:0\nWdynamic_seq2seq/decoder/decoder/while/BasicDecoderStep/decoder/attention/MatMul/Enter:0\nQdynamic_seq2seq/decoder/decoder/while/BasicDecoderStep/decoder/attention/MatMul:0\nQdynamic_seq2seq/decoder/decoder/while/BasicDecoderStep/decoder/attention/Select:0\n\\dynamic_seq2seq/decoder/decoder/while/BasicDecoderStep/decoder/attention/SequenceMask/Cast:0\n]dynamic_seq2seq/decoder/decoder/while/BasicDecoderStep/decoder/attention/SequenceMask/Const:0\n_dynamic_seq2seq/decoder/decoder/while/BasicDecoderStep/decoder/attention/SequenceMask/Const_1:0\nfdynamic_seq2seq/decoder/decoder/while/BasicDecoderStep/decoder/attention/SequenceMask/ExpandDims/dim:0\nbdynamic_seq2seq/decoder/decoder/while/BasicDecoderStep/decoder/attention/SequenceMask/ExpandDims:0\n\\dynamic_seq2seq/decoder/decoder/while/BasicDecoderStep/decoder/attention/SequenceMask/Less:0\n]dynamic_seq2seq/decoder/decoder/while/BasicDecoderStep/decoder/attention/SequenceMask/Range:0\nPdynamic_seq2seq/decoder/decoder/while/BasicDecoderStep/decoder/attention/Shape:0\nRdynamic_seq2seq/decoder/decoder/while/BasicDecoderStep/decoder/attention/Softmax:0\nRdynamic_seq2seq/decoder/decoder/while/BasicDecoderStep/decoder/attention/Squeeze:0\ntdynamic_seq2seq/decoder/decoder/while/BasicDecoderStep/decoder/attention/TensorArrayWrite/TensorArrayWriteV3/Enter:0\nndynamic_seq2seq/decoder/decoder/while/BasicDecoderStep/decoder/attention/TensorArrayWrite/TensorArrayWriteV3:0\nPdynamic_seq2seq/decoder/decoder/while/BasicDecoderStep/decoder/attention/add/y:0\nNdynamic_seq2seq/decoder/decoder/while/BasicDecoderStep/decoder/attention/add:0\n[dynamic_seq2seq/decoder/decoder/while/BasicDecoderStep/decoder/attention/assert_equal/All:0\nldynamic_seq2seq/decoder/decoder/while/BasicDecoderStep/decoder/attention/assert_equal/Assert/Assert/data_0:0\nldynamic_seq2seq/decoder/decoder/while/BasicDecoderStep/decoder/attention/assert_equal/Assert/Assert/data_1:0\nldynamic_seq2seq/decoder/decoder/while/BasicDecoderStep/decoder/attention/assert_equal/Assert/Assert/data_2:0\nldynamic_seq2seq/decoder/decoder/while/BasicDecoderStep/decoder/attention/assert_equal/Assert/Assert/data_4:0\nddynamic_seq2seq/decoder/decoder/while/BasicDecoderStep/decoder/attention/assert_equal/Assert/Const:0\nfdynamic_seq2seq/decoder/decoder/while/BasicDecoderStep/decoder/attention/assert_equal/Assert/Const_1:0\nfdynamic_seq2seq/decoder/decoder/while/BasicDecoderStep/decoder/attention/assert_equal/Assert/Const_2:0\nfdynamic_seq2seq/decoder/decoder/while/BasicDecoderStep/decoder/attention/assert_equal/Assert/Const_3:0\n]dynamic_seq2seq/decoder/decoder/while/BasicDecoderStep/decoder/attention/assert_equal/Const:0\n]dynamic_seq2seq/decoder/decoder/while/BasicDecoderStep/decoder/attention/assert_equal/Equal:0\nYdynamic_seq2seq/decoder/decoder/while/BasicDecoderStep/decoder/attention/assert_equal/x:0\nYdynamic_seq2seq/decoder/decoder/while/BasicDecoderStep/decoder/attention/assert_equal/y:0\n`dynamic_seq2seq/decoder/decoder/while/BasicDecoderStep/decoder/attention/assert_positive/Const:0\njdynamic_seq2seq/decoder/decoder/while/BasicDecoderStep/decoder/attention/assert_positive/assert_less/All:0\n{dynamic_seq2seq/decoder/decoder/while/BasicDecoderStep/decoder/attention/assert_positive/assert_less/Assert/Assert/data_0:0\n{dynamic_seq2seq/decoder/decoder/while/BasicDecoderStep/decoder/attention/assert_positive/assert_less/Assert/Assert/data_1:0\n{dynamic_seq2seq/decoder/decoder/while/BasicDecoderStep/decoder/attention/assert_positive/assert_less/Assert/Assert/data_2:0\nsdynamic_seq2seq/decoder/decoder/while/BasicDecoderStep/decoder/attention/assert_positive/assert_less/Assert/Const:0\nudynamic_seq2seq/decoder/decoder/while/BasicDecoderStep/decoder/attention/assert_positive/assert_less/Assert/Const_1:0\nudynamic_seq2seq/decoder/decoder/while/BasicDecoderStep/decoder/attention/assert_positive/assert_less/Assert/Const_2:0\nldynamic_seq2seq/decoder/decoder/while/BasicDecoderStep/decoder/attention/assert_positive/assert_less/Const:0\nqdynamic_seq2seq/decoder/decoder/while/BasicDecoderStep/decoder/attention/assert_positive/assert_less/Less/Enter:0\nkdynamic_seq2seq/decoder/decoder/while/BasicDecoderStep/decoder/attention/assert_positive/assert_less/Less:0\n~dynamic_seq2seq/decoder/decoder/while/BasicDecoderStep/decoder/attention/attention/multi_rnn_cell/cell_0/basic_lstm_cell/Add:0\n\200\001dynamic_seq2seq/decoder/decoder/while/BasicDecoderStep/decoder/attention/attention/multi_rnn_cell/cell_0/basic_lstm_cell/Add_1:0\n\210\001dynamic_seq2seq/decoder/decoder/while/BasicDecoderStep/decoder/attention/attention/multi_rnn_cell/cell_0/basic_lstm_cell/BiasAdd/Enter:0\n\202\001dynamic_seq2seq/decoder/decoder/while/BasicDecoderStep/decoder/attention/attention/multi_rnn_cell/cell_0/basic_lstm_cell/BiasAdd:0\n\200\001dynamic_seq2seq/decoder/decoder/while/BasicDecoderStep/decoder/attention/attention/multi_rnn_cell/cell_0/basic_lstm_cell/Const:0\n\202\001dynamic_seq2seq/decoder/decoder/while/BasicDecoderStep/decoder/attention/attention/multi_rnn_cell/cell_0/basic_lstm_cell/Const_1:0\n\202\001dynamic_seq2seq/decoder/decoder/while/BasicDecoderStep/decoder/attention/attention/multi_rnn_cell/cell_0/basic_lstm_cell/Const_2:0\n\207\001dynamic_seq2seq/decoder/decoder/while/BasicDecoderStep/decoder/attention/attention/multi_rnn_cell/cell_0/basic_lstm_cell/MatMul/Enter:0\n\201\001dynamic_seq2seq/decoder/decoder/while/BasicDecoderStep/decoder/attention/attention/multi_rnn_cell/cell_0/basic_lstm_cell/MatMul:0\n~dynamic_seq2seq/decoder/decoder/while/BasicDecoderStep/decoder/attention/attention/multi_rnn_cell/cell_0/basic_lstm_cell/Mul:0\n\200\001dynamic_seq2seq/decoder/decoder/while/BasicDecoderStep/decoder/attention/attention/multi_rnn_cell/cell_0/basic_lstm_cell/Mul_1:0\n\200\001dynamic_seq2seq/decoder/decoder/while/BasicDecoderStep/decoder/attention/attention/multi_rnn_cell/cell_0/basic_lstm_cell/Mul_2:0\n\202\001dynamic_seq2seq/decoder/decoder/while/BasicDecoderStep/decoder/attention/attention/multi_rnn_cell/cell_0/basic_lstm_cell/Sigmoid:0\n\204\001dynamic_seq2seq/decoder/decoder/while/BasicDecoderStep/decoder/attention/attention/multi_rnn_cell/cell_0/basic_lstm_cell/Sigmoid_1:0\n\204\001dynamic_seq2seq/decoder/decoder/while/BasicDecoderStep/decoder/attention/attention/multi_rnn_cell/cell_0/basic_lstm_cell/Sigmoid_2:0\n\177dynamic_seq2seq/decoder/decoder/while/BasicDecoderStep/decoder/attention/attention/multi_rnn_cell/cell_0/basic_lstm_cell/Tanh:0\n\201\001dynamic_seq2seq/decoder/decoder/while/BasicDecoderStep/decoder/attention/attention/multi_rnn_cell/cell_0/basic_lstm_cell/Tanh_1:0\n\206\001dynamic_seq2seq/decoder/decoder/while/BasicDecoderStep/decoder/attention/attention/multi_rnn_cell/cell_0/basic_lstm_cell/concat/axis:0\n\201\001dynamic_seq2seq/decoder/decoder/while/BasicDecoderStep/decoder/attention/attention/multi_rnn_cell/cell_0/basic_lstm_cell/concat:0\n\200\001dynamic_seq2seq/decoder/decoder/while/BasicDecoderStep/decoder/attention/attention/multi_rnn_cell/cell_0/basic_lstm_cell/split:0\n\200\001dynamic_seq2seq/decoder/decoder/while/BasicDecoderStep/decoder/attention/attention/multi_rnn_cell/cell_0/basic_lstm_cell/split:1\n\200\001dynamic_seq2seq/decoder/decoder/while/BasicDecoderStep/decoder/attention/attention/multi_rnn_cell/cell_0/basic_lstm_cell/split:2\n\200\001dynamic_seq2seq/decoder/decoder/while/BasicDecoderStep/decoder/attention/attention/multi_rnn_cell/cell_0/basic_lstm_cell/split:3\n~dynamic_seq2seq/decoder/decoder/while/BasicDecoderStep/decoder/attention/attention/multi_rnn_cell/cell_1/basic_lstm_cell/Add:0\n\200\001dynamic_seq2seq/decoder/decoder/while/BasicDecoderStep/decoder/attention/attention/multi_rnn_cell/cell_1/basic_lstm_cell/Add_1:0\n\210\001dynamic_seq2seq/decoder/decoder/while/BasicDecoderStep/decoder/attention/attention/multi_rnn_cell/cell_1/basic_lstm_cell/BiasAdd/Enter:0\n\202\001dynamic_seq2seq/decoder/decoder/while/BasicDecoderStep/decoder/attention/attention/multi_rnn_cell/cell_1/basic_lstm_cell/BiasAdd:0\n\200\001dynamic_seq2seq/decoder/decoder/while/BasicDecoderStep/decoder/attention/attention/multi_rnn_cell/cell_1/basic_lstm_cell/Const:0\n\202\001dynamic_seq2seq/decoder/decoder/while/BasicDecoderStep/decoder/attention/attention/multi_rnn_cell/cell_1/basic_lstm_cell/Const_1:0\n\202\001dynamic_seq2seq/decoder/decoder/while/BasicDecoderStep/decoder/attention/attention/multi_rnn_cell/cell_1/basic_lstm_cell/Const_2:0\n\207\001dynamic_seq2seq/decoder/decoder/while/BasicDecoderStep/decoder/attention/attention/multi_rnn_cell/cell_1/basic_lstm_cell/MatMul/Enter:0\n\201\001dynamic_seq2seq/decoder/decoder/while/BasicDecoderStep/decoder/attention/attention/multi_rnn_cell/cell_1/basic_lstm_cell/MatMul:0\n~dynamic_seq2seq/decoder/decoder/while/BasicDecoderStep/decoder/attention/attention/multi_rnn_cell/cell_1/basic_lstm_cell/Mul:0\n\200\001dynamic_seq2seq/decoder/decoder/while/BasicDecoderStep/decoder/attention/attention/multi_rnn_cell/cell_1/basic_lstm_cell/Mul_1:0\n\200\001dynamic_seq2seq/decoder/decoder/while/BasicDecoderStep/decoder/attention/attention/multi_rnn_cell/cell_1/basic_lstm_cell/Mul_2:0\n\202\001dynamic_seq2seq/decoder/decoder/while/BasicDecoderStep/decoder/attention/attention/multi_rnn_cell/cell_1/basic_lstm_cell/Sigmoid:0\n\204\001dynamic_seq2seq/decoder/decoder/while/BasicDecoderStep/decoder/attention/attention/multi_rnn_cell/cell_1/basic_lstm_cell/Sigmoid_1:0\n\204\001dynamic_seq2seq/decoder/decoder/while/BasicDecoderStep/decoder/attention/attention/multi_rnn_cell/cell_1/basic_lstm_cell/Sigmoid_2:0\n\177dynamic_seq2seq/decoder/decoder/while/BasicDecoderStep/decoder/attention/attention/multi_rnn_cell/cell_1/basic_lstm_cell/Tanh:0\n\201\001dynamic_seq2seq/decoder/decoder/while/BasicDecoderStep/decoder/attention/attention/multi_rnn_cell/cell_1/basic_lstm_cell/Tanh_1:0\n\206\001dynamic_seq2seq/decoder/decoder/while/BasicDecoderStep/decoder/attention/attention/multi_rnn_cell/cell_1/basic_lstm_cell/concat/axis:0\n\201\001dynamic_seq2seq/decoder/decoder/while/BasicDecoderStep/decoder/attention/attention/multi_rnn_cell/cell_1/basic_lstm_cell/concat:0\n\200\001dynamic_seq2seq/decoder/decoder/while/BasicDecoderStep/decoder/attention/attention/multi_rnn_cell/cell_1/basic_lstm_cell/split:0\n\200\001dynamic_seq2seq/decoder/decoder/while/BasicDecoderStep/decoder/attention/attention/multi_rnn_cell/cell_1/basic_lstm_cell/split:1\n\200\001dynamic_seq2seq/decoder/decoder/while/BasicDecoderStep/decoder/attention/attention/multi_rnn_cell/cell_1/basic_lstm_cell/split:2\n\200\001dynamic_seq2seq/decoder/decoder/while/BasicDecoderStep/decoder/attention/attention/multi_rnn_cell/cell_1/basic_lstm_cell/split:3\ngdynamic_seq2seq/decoder/decoder/while/BasicDecoderStep/decoder/attention/attention_layer/MatMul/Enter:0\nadynamic_seq2seq/decoder/decoder/while/BasicDecoderStep/decoder/attention/attention_layer/MatMul:0\n^dynamic_seq2seq/decoder/decoder/while/BasicDecoderStep/decoder/attention/checked_cell_output:0\nVdynamic_seq2seq/decoder/decoder/while/BasicDecoderStep/decoder/attention/concat/axis:0\nQdynamic_seq2seq/decoder/decoder/while/BasicDecoderStep/decoder/attention/concat:0\nXdynamic_seq2seq/decoder/decoder/while/BasicDecoderStep/decoder/attention/concat_1/axis:0\nSdynamic_seq2seq/decoder/decoder/while/BasicDecoderStep/decoder/attention/concat_1:0\n^dynamic_seq2seq/decoder/decoder/while/BasicDecoderStep/decoder/attention/concat_2/concat_dim:0\nSdynamic_seq2seq/decoder/decoder/while/BasicDecoderStep/decoder/attention/concat_2:0\nidynamic_seq2seq/decoder/decoder/while/BasicDecoderStep/decoder/attention/luong_attention/ExpandDims/dim:0\nedynamic_seq2seq/decoder/decoder/while/BasicDecoderStep/decoder/attention/luong_attention/ExpandDims:0\ngdynamic_seq2seq/decoder/decoder/while/BasicDecoderStep/decoder/attention/luong_attention/MatMul/Enter:0\nadynamic_seq2seq/decoder/decoder/while/BasicDecoderStep/decoder/attention/luong_attention/MatMul:0\nbdynamic_seq2seq/decoder/decoder/while/BasicDecoderStep/decoder/attention/luong_attention/Squeeze:0\nddynamic_seq2seq/decoder/decoder/while/BasicDecoderStep/decoder/attention/luong_attention/mul/Enter:0\n^dynamic_seq2seq/decoder/decoder/while/BasicDecoderStep/decoder/attention/luong_attention/mul:0\nPdynamic_seq2seq/decoder/decoder/while/BasicDecoderStep/decoder/attention/mul/x:0\nNdynamic_seq2seq/decoder/decoder/while/BasicDecoderStep/decoder/attention/mul:0\nZdynamic_seq2seq/decoder/decoder/while/BasicDecoderStep/decoder/attention/ones_like/Const:0\nZdynamic_seq2seq/decoder/decoder/while/BasicDecoderStep/decoder/attention/ones_like/Shape:0\nTdynamic_seq2seq/decoder/decoder/while/BasicDecoderStep/decoder/attention/ones_like:0\n^dynamic_seq2seq/decoder/decoder/while/BasicDecoderStep/decoder/attention/strided_slice/stack:0\n`dynamic_seq2seq/decoder/decoder/while/BasicDecoderStep/decoder/attention/strided_slice/stack_1:0\n`dynamic_seq2seq/decoder/decoder/while/BasicDecoderStep/decoder/attention/strided_slice/stack_2:0\nXdynamic_seq2seq/decoder/decoder/while/BasicDecoderStep/decoder/attention/strided_slice:0\nWdynamic_seq2seq/decoder/decoder/while/BasicDecoderStep/output_projection/MatMul/Enter:0\nQdynamic_seq2seq/decoder/decoder/while/BasicDecoderStep/output_projection/MatMul:0\n-dynamic_seq2seq/decoder/decoder/while/Const:0\n-dynamic_seq2seq/decoder/decoder/while/Enter:0\n0dynamic_seq2seq/decoder/decoder/while/Enter_10:0\n0dynamic_seq2seq/decoder/decoder/while/Enter_11:0\n0dynamic_seq2seq/decoder/decoder/while/Enter_12:0\n0dynamic_seq2seq/decoder/decoder/while/Enter_13:0\n0dynamic_seq2seq/decoder/decoder/while/Enter_14:0\n0dynamic_seq2seq/decoder/decoder/while/Enter_15:0\n/dynamic_seq2seq/decoder/decoder/while/Enter_1:0\n/dynamic_seq2seq/decoder/decoder/while/Enter_2:0\n/dynamic_seq2seq/decoder/decoder/while/Enter_3:0\n/dynamic_seq2seq/decoder/decoder/while/Enter_4:0\n/dynamic_seq2seq/decoder/decoder/while/Enter_5:0\n/dynamic_seq2seq/decoder/decoder/while/Enter_6:0\n/dynamic_seq2seq/decoder/decoder/while/Enter_7:0\n/dynamic_seq2seq/decoder/decoder/while/Enter_8:0\n/dynamic_seq2seq/decoder/decoder/while/Enter_9:0\n,dynamic_seq2seq/decoder/decoder/while/Exit:0\n/dynamic_seq2seq/decoder/decoder/while/Exit_10:0\n/dynamic_seq2seq/decoder/decoder/while/Exit_11:0\n/dynamic_seq2seq/decoder/decoder/while/Exit_12:0\n/dynamic_seq2seq/decoder/decoder/while/Exit_13:0\n/dynamic_seq2seq/decoder/decoder/while/Exit_14:0\n/dynamic_seq2seq/decoder/decoder/while/Exit_15:0\n.dynamic_seq2seq/decoder/decoder/while/Exit_1:0\n.dynamic_seq2seq/decoder/decoder/while/Exit_2:0\n.dynamic_seq2seq/decoder/decoder/while/Exit_3:0\n.dynamic_seq2seq/decoder/decoder/while/Exit_4:0\n.dynamic_seq2seq/decoder/decoder/while/Exit_5:0\n.dynamic_seq2seq/decoder/decoder/while/Exit_6:0\n.dynamic_seq2seq/decoder/decoder/while/Exit_7:0\n.dynamic_seq2seq/decoder/decoder/while/Exit_8:0\n.dynamic_seq2seq/decoder/decoder/while/Exit_9:0\n,dynamic_seq2seq/decoder/decoder/while/Fill:0\n0dynamic_seq2seq/decoder/decoder/while/Identity:0\n3dynamic_seq2seq/decoder/decoder/while/Identity_10:0\n3dynamic_seq2seq/decoder/decoder/while/Identity_11:0\n3dynamic_seq2seq/decoder/decoder/while/Identity_12:0\n3dynamic_seq2seq/decoder/decoder/while/Identity_13:0\n3dynamic_seq2seq/decoder/decoder/while/Identity_14:0\n3dynamic_seq2seq/decoder/decoder/while/Identity_15:0\n2dynamic_seq2seq/decoder/decoder/while/Identity_1:0\n2dynamic_seq2seq/decoder/decoder/while/Identity_2:0\n2dynamic_seq2seq/decoder/decoder/while/Identity_3:0\n2dynamic_seq2seq/decoder/decoder/while/Identity_4:0\n2dynamic_seq2seq/decoder/decoder/while/Identity_5:0\n2dynamic_seq2seq/decoder/decoder/while/Identity_6:0\n2dynamic_seq2seq/decoder/decoder/while/Identity_7:0\n2dynamic_seq2seq/decoder/decoder/while/Identity_8:0\n2dynamic_seq2seq/decoder/decoder/while/Identity_9:0\n2dynamic_seq2seq/decoder/decoder/while/Less/Enter:0\n,dynamic_seq2seq/decoder/decoder/while/Less:0\n2dynamic_seq2seq/decoder/decoder/while/LogicalAnd:0\n2dynamic_seq2seq/decoder/decoder/while/LogicalNot:0\n4dynamic_seq2seq/decoder/decoder/while/LogicalNot_1:0\n1dynamic_seq2seq/decoder/decoder/while/LogicalOr:0\n0dynamic_seq2seq/decoder/decoder/while/LoopCond:0\n-dynamic_seq2seq/decoder/decoder/while/Merge:0\n-dynamic_seq2seq/decoder/decoder/while/Merge:1\n0dynamic_seq2seq/decoder/decoder/while/Merge_10:0\n0dynamic_seq2seq/decoder/decoder/while/Merge_10:1\n0dynamic_seq2seq/decoder/decoder/while/Merge_11:0\n0dynamic_seq2seq/decoder/decoder/while/Merge_11:1\n0dynamic_seq2seq/decoder/decoder/while/Merge_12:0\n0dynamic_seq2seq/decoder/decoder/while/Merge_12:1\n0dynamic_seq2seq/decoder/decoder/while/Merge_13:0\n0dynamic_seq2seq/decoder/decoder/while/Merge_13:1\n0dynamic_seq2seq/decoder/decoder/while/Merge_14:0\n0dynamic_seq2seq/decoder/decoder/while/Merge_14:1\n0dynamic_seq2seq/decoder/decoder/while/Merge_15:0\n0dynamic_seq2seq/decoder/decoder/while/Merge_15:1\n/dynamic_seq2seq/decoder/decoder/while/Merge_1:0\n/dynamic_seq2seq/decoder/decoder/while/Merge_1:1\n/dynamic_seq2seq/decoder/decoder/while/Merge_2:0\n/dynamic_seq2seq/decoder/decoder/while/Merge_2:1\n/dynamic_seq2seq/decoder/decoder/while/Merge_3:0\n/dynamic_seq2seq/decoder/decoder/while/Merge_3:1\n/dynamic_seq2seq/decoder/decoder/while/Merge_4:0\n/dynamic_seq2seq/decoder/decoder/while/Merge_4:1\n/dynamic_seq2seq/decoder/decoder/while/Merge_5:0\n/dynamic_seq2seq/decoder/decoder/while/Merge_5:1\n/dynamic_seq2seq/decoder/decoder/while/Merge_6:0\n/dynamic_seq2seq/decoder/decoder/while/Merge_6:1\n/dynamic_seq2seq/decoder/decoder/while/Merge_7:0\n/dynamic_seq2seq/decoder/decoder/while/Merge_7:1\n/dynamic_seq2seq/decoder/decoder/while/Merge_8:0\n/dynamic_seq2seq/decoder/decoder/while/Merge_8:1\n/dynamic_seq2seq/decoder/decoder/while/Merge_9:0\n/dynamic_seq2seq/decoder/decoder/while/Merge_9:1\n5dynamic_seq2seq/decoder/decoder/while/NextIteration:0\n8dynamic_seq2seq/decoder/decoder/while/NextIteration_10:0\n8dynamic_seq2seq/decoder/decoder/while/NextIteration_11:0\n8dynamic_seq2seq/decoder/decoder/while/NextIteration_12:0\n8dynamic_seq2seq/decoder/decoder/while/NextIteration_13:0\n8dynamic_seq2seq/decoder/decoder/while/NextIteration_14:0\n8dynamic_seq2seq/decoder/decoder/while/NextIteration_15:0\n7dynamic_seq2seq/decoder/decoder/while/NextIteration_1:0\n7dynamic_seq2seq/decoder/decoder/while/NextIteration_2:0\n7dynamic_seq2seq/decoder/decoder/while/NextIteration_3:0\n7dynamic_seq2seq/decoder/decoder/while/NextIteration_4:0\n7dynamic_seq2seq/decoder/decoder/while/NextIteration_5:0\n7dynamic_seq2seq/decoder/decoder/while/NextIteration_6:0\n7dynamic_seq2seq/decoder/decoder/while/NextIteration_7:0\n7dynamic_seq2seq/decoder/decoder/while/NextIteration_8:0\n7dynamic_seq2seq/decoder/decoder/while/NextIteration_9:0\n.dynamic_seq2seq/decoder/decoder/while/Select:0\n-dynamic_seq2seq/decoder/decoder/while/Shape:0\n.dynamic_seq2seq/decoder/decoder/while/Switch:0\n.dynamic_seq2seq/decoder/decoder/while/Switch:1\n1dynamic_seq2seq/decoder/decoder/while/Switch_10:0\n1dynamic_seq2seq/decoder/decoder/while/Switch_10:1\n1dynamic_seq2seq/decoder/decoder/while/Switch_11:0\n1dynamic_seq2seq/decoder/decoder/while/Switch_11:1\n1dynamic_seq2seq/decoder/decoder/while/Switch_12:0\n1dynamic_seq2seq/decoder/decoder/while/Switch_12:1\n1dynamic_seq2seq/decoder/decoder/while/Switch_13:0\n1dynamic_seq2seq/decoder/decoder/while/Switch_13:1\n1dynamic_seq2seq/decoder/decoder/while/Switch_14:0\n1dynamic_seq2seq/decoder/decoder/while/Switch_14:1\n1dynamic_seq2seq/decoder/decoder/while/Switch_15:0\n1dynamic_seq2seq/decoder/decoder/while/Switch_15:1\n0dynamic_seq2seq/decoder/decoder/while/Switch_1:0\n0dynamic_seq2seq/decoder/decoder/while/Switch_1:1\n0dynamic_seq2seq/decoder/decoder/while/Switch_2:0\n0dynamic_seq2seq/decoder/decoder/while/Switch_2:1\n0dynamic_seq2seq/decoder/decoder/while/Switch_3:0\n0dynamic_seq2seq/decoder/decoder/while/Switch_3:1\n0dynamic_seq2seq/decoder/decoder/while/Switch_4:0\n0dynamic_seq2seq/decoder/decoder/while/Switch_4:1\n0dynamic_seq2seq/decoder/decoder/while/Switch_5:0\n0dynamic_seq2seq/decoder/decoder/while/Switch_5:1\n0dynamic_seq2seq/decoder/decoder/while/Switch_6:0\n0dynamic_seq2seq/decoder/decoder/while/Switch_6:1\n0dynamic_seq2seq/decoder/decoder/while/Switch_7:0\n0dynamic_seq2seq/decoder/decoder/while/Switch_7:1\n0dynamic_seq2seq/decoder/decoder/while/Switch_8:0\n0dynamic_seq2seq/decoder/decoder/while/Switch_8:1\n0dynamic_seq2seq/decoder/decoder/while/Switch_9:0\n0dynamic_seq2seq/decoder/decoder/while/Switch_9:1\nQdynamic_seq2seq/decoder/decoder/while/TensorArrayWrite/TensorArrayWriteV3/Enter:0\nKdynamic_seq2seq/decoder/decoder/while/TensorArrayWrite/TensorArrayWriteV3:0\nSdynamic_seq2seq/decoder/decoder/while/TensorArrayWrite_1/TensorArrayWriteV3/Enter:0\nMdynamic_seq2seq/decoder/decoder/while/TensorArrayWrite_1/TensorArrayWriteV3:0\n-dynamic_seq2seq/decoder/decoder/while/add/y:0\n+dynamic_seq2seq/decoder/decoder/while/add:0\n/dynamic_seq2seq/decoder/decoder/while/add_1/y:0\n-dynamic_seq2seq/decoder/decoder/while/add_1:0\n/dynamic_seq2seq/decoder/decoder/while/add_2/y:0\n-dynamic_seq2seq/decoder/decoder/while/add_2:0\n*dynamic_seq2seq/decoder/embedding_lookup:0\n7dynamic_seq2seq/decoder/output_projection/kernel/read:0\n+embeddings/decoder/embedding_decoder/read:0\022\202\001\n-dynamic_seq2seq/decoder/decoder/TensorArray:0\022Qdynamic_seq2seq/decoder/decoder/while/TensorArrayWrite/TensorArrayWriteV3/Enter:0\022O\n\031dynamic_seq2seq/ToInt32:0\0222dynamic_seq2seq/decoder/decoder/while/Less/Enter:0\022\341\001\nUdynamic_seq2seq/decoder/attention/multi_rnn_cell/cell_0/basic_lstm_cell/kernel/read:0\022\207\001dynamic_seq2seq/decoder/decoder/while/BasicDecoderStep/decoder/attention/attention/multi_rnn_cell/cell_0/basic_lstm_cell/MatMul/Enter:0\022\340\001\nSdynamic_seq2seq/decoder/attention/multi_rnn_cell/cell_0/basic_lstm_cell/bias/read:0\022\210\001dynamic_seq2seq/decoder/decoder/while/BasicDecoderStep/decoder/attention/attention/multi_rnn_cell/cell_0/basic_lstm_cell/BiasAdd/Enter:0\022q\n*dynamic_seq2seq/decoder/embedding_lookup:0\022Cdynamic_seq2seq/decoder/decoder/while/BasicDecoderStep/cond/Enter:0\022\203\001\n+embeddings/decoder/embedding_decoder/read:0\022Tdynamic_seq2seq/decoder/decoder/while/BasicDecoderStep/cond/embedding_lookup/Enter:0\022\341\001\nUdynamic_seq2seq/decoder/attention/multi_rnn_cell/cell_1/basic_lstm_cell/kernel/read:0\022\207\001dynamic_seq2seq/decoder/decoder/while/BasicDecoderStep/decoder/attention/attention/multi_rnn_cell/cell_1/basic_lstm_cell/MatMul/Enter:0\022\316\001\nVdynamic_seq2seq/decoder/DeviceWrapperZeroState/AttentionWrapperZeroState/TensorArray:0\022tdynamic_seq2seq/decoder/decoder/while/BasicDecoderStep/decoder/attention/TensorArrayWrite/TensorArrayWriteV3/Enter:0\022\222\001\n7dynamic_seq2seq/decoder/output_projection/kernel/read:0\022Wdynamic_seq2seq/decoder/decoder/while/BasicDecoderStep/output_projection/MatMul/Enter:0\022\252\001\n?dynamic_seq2seq/decoder/attention/attention_layer/kernel/read:0\022gdynamic_seq2seq/decoder/decoder/while/BasicDecoderStep/decoder/attention/attention_layer/MatMul/Enter:0\022\206\001\n/dynamic_seq2seq/decoder/decoder/TensorArray_1:0\022Sdynamic_seq2seq/decoder/decoder/while/TensorArrayWrite_1/TensorArrayWriteV3/Enter:0\022\252\001\n?dynamic_seq2seq/decoder/LuongAttention/memory_layer/Tensordot:0\022gdynamic_seq2seq/decoder/decoder/while/BasicDecoderStep/decoder/attention/luong_attention/MatMul/Enter:0\022\207\001\n,dynamic_seq2seq/decoder/LuongAttention/mul:0\022Wdynamic_seq2seq/decoder/decoder/while/BasicDecoderStep/decoder/attention/MatMul/Enter:0\022\340\001\nSdynamic_seq2seq/decoder/attention/multi_rnn_cell/cell_1/basic_lstm_cell/bias/read:0\022\210\001dynamic_seq2seq/decoder/decoder/while/BasicDecoderStep/decoder/attention/attention/multi_rnn_cell/cell_1/basic_lstm_cell/BiasAdd/Enter:0\022\254\001\nDdynamic_seq2seq/decoder/attention/luong_attention/attention_g/read:0\022ddynamic_seq2seq/decoder/decoder/while/BasicDecoderStep/decoder/attention/luong_attention/mul/Enter:0\022`\n\030dynamic_seq2seq/Cast_1:0\022Ddynamic_seq2seq/decoder/decoder/while/BasicDecoderStep/Equal/Enter:0\022\203\001\n\016ExpandDims_1:0\022qdynamic_seq2seq/decoder/decoder/while/BasicDecoderStep/decoder/attention/assert_positive/assert_less/Less/Enter:0R-dynamic_seq2seq/decoder/decoder/while/Enter:0R/dynamic_seq2seq/decoder/decoder/while/Enter_1:0R/dynamic_seq2seq/decoder/decoder/while/Enter_2:0R/dynamic_seq2seq/decoder/decoder/while/Enter_3:0R/dynamic_seq2seq/decoder/decoder/while/Enter_4:0R/dynamic_seq2seq/decoder/decoder/while/Enter_5:0R/dynamic_seq2seq/decoder/decoder/while/Enter_6:0R/dynamic_seq2seq/decoder/decoder/while/Enter_7:0R/dynamic_seq2seq/decoder/decoder/while/Enter_8:0R/dynamic_seq2seq/decoder/decoder/while/Enter_9:0R0dynamic_seq2seq/decoder/decoder/while/Enter_10:0R0dynamic_seq2seq/decoder/decoder/while/Enter_11:0R0dynamic_seq2seq/decoder/decoder/while/Enter_12:0R0dynamic_seq2seq/decoder/decoder/while/Enter_13:0R0dynamic_seq2seq/decoder/decoder/while/Enter_14:0R0dynamic_seq2seq/decoder/decoder/while/Enter_15:0Z\031dynamic_seq2seq/ToInt32:0b\202\010\n\377\007\nEdynamic_seq2seq/decoder/decoder/while/BasicDecoderStep/cond/cond_text\022Edynamic_seq2seq/decoder/decoder/while/BasicDecoderStep/cond/pred_id:0\032Fdynamic_seq2seq/decoder/decoder/while/BasicDecoderStep/cond/switch_t:0 \001*\244\006\nCdynamic_seq2seq/decoder/decoder/while/BasicDecoderStep/cond/Enter:0\nFdynamic_seq2seq/decoder/decoder/while/BasicDecoderStep/cond/Switch_1:0\nFdynamic_seq2seq/decoder/decoder/while/BasicDecoderStep/cond/Switch_1:1\nEdynamic_seq2seq/decoder/decoder/while/BasicDecoderStep/cond/pred_id:0\nFdynamic_seq2seq/decoder/decoder/while/BasicDecoderStep/cond/switch_t:0\n*dynamic_seq2seq/decoder/embedding_lookup:0\022\216\001\nEdynamic_seq2seq/decoder/decoder/while/BasicDecoderStep/cond/pred_id:0\022Edynamic_seq2seq/decoder/decoder/while/BasicDecoderStep/cond/pred_id:0\022t\n*dynamic_seq2seq/decoder/embedding_lookup:0\022Fdynamic_seq2seq/decoder/decoder/while/BasicDecoderStep/cond/Switch_1:1\022\212\001\nCdynamic_seq2seq/decoder/decoder/while/BasicDecoderStep/cond/Enter:0\022Cdynamic_seq2seq/decoder/decoder/while/BasicDecoderStep/cond/Enter:0b\352\013\n\347\013\nGdynamic_seq2seq/decoder/decoder/while/BasicDecoderStep/cond/cond_text_1\022Edynamic_seq2seq/decoder/decoder/while/BasicDecoderStep/cond/pred_id:0\032Fdynamic_seq2seq/decoder/decoder/while/BasicDecoderStep/cond/switch_f:0*\214\n\n?dynamic_seq2seq/decoder/decoder/while/BasicDecoderStep/ArgMax:0\nTdynamic_seq2seq/decoder/decoder/while/BasicDecoderStep/cond/embedding_lookup/Enter:0\nUdynamic_seq2seq/decoder/decoder/while/BasicDecoderStep/cond/embedding_lookup/Switch:0\nWdynamic_seq2seq/decoder/decoder/while/BasicDecoderStep/cond/embedding_lookup/Switch_1:0\nSdynamic_seq2seq/decoder/decoder/while/BasicDecoderStep/cond/embedding_lookup/axis:0\nNdynamic_seq2seq/decoder/decoder/while/BasicDecoderStep/cond/embedding_lookup:0\nEdynamic_seq2seq/decoder/decoder/while/BasicDecoderStep/cond/pred_id:0\nFdynamic_seq2seq/decoder/decoder/while/BasicDecoderStep/cond/switch_f:0\n+embeddings/decoder/embedding_decoder/read:0\022\254\001\nTdynamic_seq2seq/decoder/decoder/while/BasicDecoderStep/cond/embedding_lookup/Enter:0\022Tdynamic_seq2seq/decoder/decoder/while/BasicDecoderStep/cond/embedding_lookup/Enter:0\022\204\001\n+embeddings/decoder/embedding_decoder/read:0\022Udynamic_seq2seq/decoder/decoder/while/BasicDecoderStep/cond/embedding_lookup/Switch:0\022\232\001\n?dynamic_seq2seq/decoder/decoder/while/BasicDecoderStep/ArgMax:0\022Wdynamic_seq2seq/decoder/decoder/while/BasicDecoderStep/cond/embedding_lookup/Switch_1:0\022\216\001\nEdynamic_seq2seq/decoder/decoder/while/BasicDecoderStep/cond/pred_id:0\022Edynamic_seq2seq/decoder/decoder/while/BasicDecoderStep/cond/pred_id:0"
      }
    }
  }
  signature_def {
    key: "predict_nmt"
    value {
      inputs {
        key: "seq_input"
        value {
          name: "src_placeholder:0"
          dtype: DT_STRING
          tensor_shape {
            unknown_rank: true
          }
        }
      }
      outputs {
        key: "seq_output"
        value {
          name: "index_to_string_Lookup:0"
          dtype: DT_STRING
          tensor_shape {
            dim {
              size: -1
            }
            dim {
              size: 1
            }
          }
        }
      }
      method_name: "tensorflow/serving/predict"
    }
  }
}
